skz/training/probe_1.pt (torch, 34264 bytes, 2 tensors)

linear.weight f4 [2, 4096]
00000000: f31a 753a 0d8b 1f3c 9c2d e8ba 05ee 68bc
00000010: 4822 81bc 1c37 0a3c 03f9 593c 981b 78bc
00000020: 84db 093c 3024 683b 02cb d13b a336 ab3b
00000030: c25c aa3b 5168 2b3b ac24 a63a 0db5 533c
00000040: c45b 0f3c 481d c23b 967f 903a 1992 263c
00000050: 06c2 93bb d08f d83b 33fc c43b f434 76bb
00000060: 58f3 bcbb b5bd e2b9 0799 54bb 7137 d6ba
00000070: 5185 1ebc d059 613b bd95 01bc fbca c33b
00000080: fd4c 083b fdf1 ae3b 6087 9abc b3dc e6ba
00000090: 605e 4ebc 5cee 243c 906c 673b 4707 263c
000000a0: 6dcc 773c e4ae a8ba f926 54bc cd97 b6b9
000000b0: 7bd2 d83c f771 5a3c 05ae c13b 6b7b bebb
000000c0: f9de 473c 5a6a 51bb bc7a 55bb 21b9 5fbc
000000d0: bce0 6dbc 2972 303c 4f93 4a3b 51c9 3dbb
000000e0: cb16 e2bb 7efb 8eba 949c c6ba 15c7 01bc
000000f0: c912 50bc 5a01 303b 1544 1cbb 2386 d1bb
00000100: 50e9 4f3b 9621 50bc 1909 c13b b50a 3b3c
00000110: 774f 5d3b 29ce c83a 6002 76bc a172 f5bb
00000120: 288e 1a3c 49ad a6bb 5427 45bb 95ea c33b
00000130: 46ca 39bc fb6d 943b ee66 22bc dcd9 96bc
00000140: 81a7 7abc 72c7 a53a 5fd7 35bc 0978 333b
00000150: 21b9 e0bb ddcd 883b cb8a 54bc 351a b4bb
00000160: 148f 6c3c 4c86 0fbc 15dd afbb 8939 b2bb
00000170: b723 2ebc 1cc8 eaba 6979 3ebb a154 883b
00000180: 83aa 1ebc 7813 39bc 81ca d53b edbe a1ba
00000190: fcd9 3c3c 54aa f83b 6b4c 673b 755d ee3b
000001a0: ae52 08bc c616 65bc f11c 133c b303 7fbb
000001b0: 3b24 4abc 1fa1 993b 3413 023c f211 1dbc
000001c0: 5ea7 e439 a220 863a 5978 4e3c c448 6c3c
000001d0: de4f 2b3c c6ea 603c c5c6 74bb d279 0cbc
000001e0: 71b2 2aba bfe6 94bb 70f6 1d3c c744 79bc
000001f0: eb3a 43bb 6a0d 0fbb c87d b2bb b233 353c
00000200: cee4 0e3a 96e8 3d3c db5e ce3b 8b39 523c
00000210: 43b3 c53b eca7 a13b b825 f63b bca2 1f3b
00000220: 1c4a c33b 0c99 e0bb 24e7 5e3b 6ca1 2b3c
00000230: 873c e63b 637c d6bb 02d5 aaba c54b 8fbb
00000240: 562b 303c b439 1f3b e39d bf3b 20b9 61bc
00000250: 9327 24bc a603 21bc ac14 063c 4708 47bc
00000260: ffd1 4abb dd18 11bc 3a70 163c 8985 18bc
00000270: 99cb 7c3a dfc2 b93b 0fd6 5bbc e4e5 c03a
00000280: 01dc 2c3b 3fc0 62bb e3cd 4abc 2130 52bc
00000290: e905 0abc 427e f13b d1fb efbb 1e52 43bb
000002a0: 0434 503c 2722 103c de64 92bb 43ef 483c
000002b0: a55c cfba 395c 933b a71d 00bc 0487 663a
000002c0: 0067 18bb c5b1 1ebc 6663 84bb 40b5 68bc
000002d0: 75bc 543a 4716 233c a0c1 58bc 9f5b ba3b
000002e0: 293f a23b a559 27ba ae55 1ebc 6eef f739
000002f0: bc2e 9c3b 2c1b 933b fcfe 293b 893f 85bc
00000300: 2bbf 76bc 383d 8b38 8cf0 17bc b261 d33a
00000310: 339f 493c e99d c7bb 29cf 3d3c 535d 413a
00000320: e119 933b 5919 78bc aa18 b2bb a389 babb
00000330: b9d1 d7bb e029 483c ecdd 1d3c ec78 5a3c
00000340: 93da 0a3c f0de b0bb c0c0 0bbc a2e2 9d3b
00000350: b6d6 d6b9 f048 b7bb 1de7 03bc 6a13 5ebc
00000360: 066d 193c ba11 9fbb 576e 91bb 7d28 f8bb
00000370: 9852 02bc e61b 283c e655 3abc 7939 433c
00000380: 93a0 ccbb b10b 313c 3988 25bc 6dde 9d3b
00000390: bedc eebb 8f74 d43b b065 1f3c 1ffe d13a
000003a0: 4a46 e83b e7d2 b53b 384d 14bc 7c09 0bbb
000003b0: 845e 65bc 47db 6b3c d80f 57bc 6a9f 4dbc
000003c0: 2393 ccbb bc12 633c 0ff0 b83a 751b 32bc
000003d0: 71da b33b c2cc 013b 6570 53bb 771f df3b
000003e0: 639d 9fbb 9e0a eb3b 97fa c639 0fc3 583b
000003f0: c8a0 30bc 2ad0 19bc 373c 143c ce54 3bbc
0.0009350024 0.009737742 -0.0017713788 -0.0142169045 -0.015763417 0.008435991 0.013303998 -0.015143298
0.008414153 0.003542196 0.0064023742 0.005225019 0.005199046 0.0026154707 0.0012675724 0.012921584
0.008749906 0.0059239008 0.0011024352 0.010166668 -0.0045092134 0.0066089407 0.00601151 -0.0037568184
-0.0057663135 -0.00043247422 -0.0032439844 -0.0016343427 -0.00967534 0.0034385808 -0.007909236 0.005975125
0.0020797842 0.005338906 -0.01886338 -0.0017613381 -0.012595743 0.010066595 0.003531251 0.010133571
0.0151244225 -0.0012869504 -0.012948745 -0.00034826846 0.026467552 0.013332835 0.0059106373 -0.0058130524
0.012199157 -0.003195426 -0.0032574376 -0.013654978 -0.014518913 0.010769405 0.0030910557 -0.0028959105
-0.00689969 -0.0010908691 -0.0015152865 -0.007921 -0.012699791 0.0026856274 -0.002384429 -0.006394164
0.0031724758 -0.01270332 0.005890977 0.011416127 0.0033769289 0.001532023 -0.015015215 -0.0074904715
0.009433307 -0.005086575 -0.0030083256 0.005978892 -0.01133973 0.0045297123 -0.009912236 -0.01841443
-0.015298725 0.001264794 -0.011098712 0.002738478 -0.0068580066 0.0041749314 -0.012972544 -0.005496288
0.014438409 -0.008760046 -0.005366931 -0.0054389876 -0.010628632 -0.001791242 -0.0029064065 0.004160479
-0.009684208 -0.011296146 0.0065243845 -0.0012340226 0.011526581 0.007588664 0.0035293351 0.0072743245
-0.008320494 -0.01398248 0.008979068 -0.0038912117 -0.01233774 0.0046883966 0.007939149 -0.009586798
0.00043612247 0.0010233114 0.012601935 0.014421646 0.010456054 0.013727849 -0.0037349921 -0.008573966
-0.0006511575 -0.0045441086 0.009641275 -0.015214152 -0.0029789757 -0.0021828064 -0.005447123 0.011059688
0.00054509647 0.011591097 0.0062979287 0.012831102 0.0060333326 0.004933348 0.0075118206 0.0024358472
0.0059597623 -0.006854182 0.0034012282 0.010475498 0.0070262584 -0.00654559 -0.0013033452 -0.004373046
0.01075252 0.0024295868 0.005847679 -0.013777047 -0.010019201 -0.00982753 0.0081836395 -0.01214797
-0.0030947921 -0.0088560255 0.00918203 -0.009309181 0.00096433755 0.0056689824 -0.013417735 0.001471695
0.002637625 -0.003459945 -0.012378189 -0.012828858 -0.008424261 0.0073697874 -0.00732372 -0.0029803584
0.012707714 0.008797205 -0.0044675907 0.012264076 -0.0015820457 0.004497078 -0.00781957 0.00087939226
-0.0023254752 -0.009685938 -0.0040401695 -0.01420337 0.00081152405 0.009954042 -0.013229758 0.0056871916
0.004951377 -0.00063839025 -0.009663982 0.000472899 0.0047663134 0.004489323 0.0025939336 -0.016265647
-0.015060226 6.6394394e-05 -0.009273659 0.0016127138 0.012306022 -0.0060918224 0.011585035 0.0007376272
0.004489169 -0.015142762 -0.005435069 -0.005692677 -0.00658628 0.012217015 0.00963543 0.013334494
0.008474964 -0.00539767 -0.008529842 0.0048182765 -0.00040977233 -0.0055934116 -0.008050707 -0.013554433
0.009364372 -0.004854408 -0.0044382024 -0.007573186 -0.007954262 0.010260558 -0.011373019 0.011915558
-0.006244728 0.01080601 -0.010103279 0.004817775 -0.007289498 0.0064836214 0.009728834 0.0016021169
0.0070884572 0.005548823 -0.0090516135 -0.002121537 -0.013999585 0.0143955415 -0.013126336 -0.012550214
-0.006243126 0.013859447 0.0014109629 -0.010870804 0.0054886867 0.0019805883 -0.0032263037 0.006809171
-0.004871057 0.0071728965 0.00037952207 0.0033075248 -0.010780521 -0.009388009 0.009047559 -0.011433793

linear.bias f4 [2]
00000000: f687 34bb dc3a 7738
-0.002754686 5.8944206e-05
