skz/linear_probing_sentiment_classifier/training/probe_0.pt (torch, 34264 bytes, 2 tensors)

linear.weight f4 [2, 4096]
0	0x3c435838	0.011922888
1	0x3c3916ad	0.01129691
2	0xbbd6964b	-0.006548678
3	0x3c4c9ab0	0.012488052
4	0xbbb4a794	-0.005513141
5	0x3c2f7e93	0.01071133
6	0xbbb8f625	-0.005644577
7	0x3c10298c	0.008798968
8	0xbaef66d5	-0.0018264899
9	0xbc5543a7	-0.013016618
10	0x3c2a8c76	0.010409465
11	0xbb84cb5b	-0.004052562
12	0xbc2cdd9a	-0.010550881
13	0x3c00058e	0.007813824
14	0x3c0fce68	0.008777238
15	0x3c39d770	0.011342868
16	0x3b76095a	0.0037542195
17	0xbc6f368e	-0.014600409
18	0x3c99f392	0.018792901
19	0xbc65d189	-0.014027008
20	0x3c0f6718	0.008752607
21	0xbc561677	-0.0130668795
22	0xbb9c6c3b	-0.0047736443
23	0xbb57ba93	-0.0032917603
24	0x3b08cf70	0.0020875596
25	0xbb8f721a	-0.0043776156
26	0x3badbc54	0.0053019915
27	0xbc14c6e0	-0.009080619
28	0xbba43c62	-0.005012081
29	0x3c11c393	0.008896726
30	0x3c0d0d5f	0.008609145
31	0xbad8aa60	-0.0016530268
32	0xbc47b70b	-0.012189637
33	0x3bb6c266	0.0055773733
34	0xbbaeef46	-0.005338582
35	0x3ba121d9	0.004917365
36	0x3be8a7b7	0.0071000713
37	0x3bb221ec	0.0054361727
38	0x3c049a0f	0.008093371
39	0xbc1f4b9e	-0.009722618
40	0x3bd73bfb	0.0065684295
41	0xbc444e15	-0.011981507
42	0xbc296669	-0.010339358
43	0xbc80a56d	-0.015703881
44	0xbb857719	-0.0040730354
45	0x3906c7dd	0.0001285369
46	0x3b161e1a	0.0022906126
47	0xbc68531c	-0.014179971
48	0x3a1c6167	0.0005965442
49	0xbb1b9eb9	-0.002374573
50	0xbbf3ad47	-0.0074364278
51	0xbbeb3831	-0.0071783294
52	0xbc47eae3	-0.012201997
53	0xbc7acf8d	-0.015308273
54	0x3c3916ff	0.011296987
55	0xbc60f9e8	-0.013731457
56	0xbb0f4d87	-0.0021866278
57	0x3c26ac08	0.010172851
58	0x3a56d3dc	0.00081950217
59	0x3be6a5c4	0.007038804
60	0xb8eb4a90	-0.000112195616
61	0x3adc2479	0.0016795538
62	0xbace9193	-0.0015759937
63	0xbba19c4a	-0.004931961
64	0x3bb90eef	0.005647532
65	0xbbdc2156	-0.006717841
66	0xbc30ad66	-0.010783529
67	0xbad2455f	-0.0016042403
68	0xbc61278f	-0.013742342
69	0xbc4fe711	-0.012689368
70	0x3c531156	0.012882551
71	0xbc80170f	-0.015635995
72	0x3c00c944	0.007860485
73	0x3c49a857	0.012308202
74	0x3bd11f58	0.0063819103
75	0xbbcd1df6	-0.006259675
76	0x3c485769	0.012227871
77	0xbba1ea3c	-0.004941253
78	0x3b73554a	0.0037129694
79	0x3b94120b	0.0045187525
80	0x3bfc7d41	0.007705361
81	0x3c044ec0	0.008075416
82	0x3c6439e3	0.013929817
83	0xbc315c43	-0.01082522
84	0x3bd51f01	0.00650394
85	0x3b46d154	0.0030337172
86	0xbc5d77b3	-0.013517308
87	0xbba2fb66	-0.0049738167
88	0x3c1d1232	0.009586858
89	0x3c54bc4e	0.012984348
90	0xbc80825c	-0.01568716
91	0x3bf768cc	0.0075503346
92	0xbb28eccb	-0.0025775905
93	0x3c1c5ca3	0.009543571
94	0xbc6253af	-0.013813897
95	0x3bb41c85	0.005496564
96	0x3b0973ae	0.0020973491
97	0x3bf22f70	0.007390909
98	0x39fd8144	0.0004835223
99	0xba267b5b	-0.0006350779
100	0xbbb63aa2	-0.005561189
101	0xb6d6b643	-6.398915e-06
102	0x3bc2ff9f	0.0059508826
103	0x3c2ebcac	0.0106651
104	0x3bf8d6bc	0.0075939577
105	0x3c2aa60c	0.010415565
106	0x3b4ce02f	0.0031261554
107	0x3c2a327d	0.010388014
108	0x3c67afd8	0.0141410455
109	0x3b699586	0.0035642101
110	0xbb849bda	-0.0040468993
111	0xbb7dc250	-0.0038720556
112	0x3c04827b	0.00808775
113	0xbc276683	-0.010217312
114	0xbc5a5267	-0.01332531
115	0x3a8c4e30	0.0010704454
116	0x3b098def	0.002098914
117	0xbba0e1f0	-0.0049097463
118	0xbb102a15	-0.002199774
119	0xbc42ae5e	-0.011882393
120	0x3c3edaf7	0.011648885
121	0xbbe05ae4	-0.0068467725
122	0x3c23bc62	0.009993644
123	0xbbc5a56f	-0.006031684
124	0xbb5700ad	-0.00328068
125	0xbc620b00	-0.013796568
126	0xbc6be9c6	-0.014398998
127	0x3c740241	0.0148931155
128	0x3c05cad3	0.008166033
129	0xbc80fa40	-0.015744328
130	0x3c4fbd29	0.012679377
131	0xbc3d9f1c	-0.011573579
132	0x3c3435f1	0.010999189
133	0xbb2f9976	-0.002679435
134	0xbc176215	-0.009239693
135	0x3ba65c77	0.0050769406
136	0x3a041f25	0.0005040041
137	0x3bd296d0	0.0064266697
138	0xbc2f6794	-0.010705847
139	0xbba377dc	-0.0049886536
140	0xbc0c8ca0	-0.0085784495
141	0x3b2aeb69	0.0026080257
142	0xbbdef6f1	-0.00680434
143	0x3c1a206c	0.009407144
144	0xbbb43175	-0.00549906
145	0x3b9ae8cc	0.0047274586
146	0xbbb956aa	-0.005656083
147	0xbb966188	-0.0045892633
148	0x3c6af143	0.014339748
149	0x3bb4721c	0.005506767
150	0x3c03a476	0.008034816
151	0x3bdea311	0.0067943414
152	0x396cdf4e	0.00022589901
153	0x3c42d71f	0.011892109
154	0x39d1079a	0.0003986925
155	0x3c276aa2	0.010218294
156	0x3c521e14	0.012824554
157	0x3a8074e8	0.0009800466
158	0xbc26c147	-0.010177917
159	0x3c2076e7	0.0097939735
160	0x3934c7b7	0.00017240537
161	0x3c0db059	0.008648002
162	0x3b8fdc45	0.004390272
163	0x3c350a20	0.011049777
164	0x3be57a7f	0.007003128
165	0x3c076518	0.008263849
166	0x3bdc5bc7	0.006724808
167	0x3c4e21af	0.012581273
168	0x3b4c9d03	0.0031221516
169	0xbbf3ffad	-0.0074462504
170	0x3a8a7246	0.0010562621
171	0x3c4e023b	0.012573774
172	0xbc0ee91c	-0.00872257
173	0xbc20f9dd	-0.009825197
174	0x3b8280a8	0.003982622
175	0x3c691a0c	0.014227401
176	0xbc182620	-0.009286433
177	0x3c554b1d	0.013018397
178	0xbc2ab905	-0.010420089
179	0x3c3e2c64	0.011607263
180	0x3c807ce1	0.015684547
181	0xbb142273	-0.002260354
182	0xbc2057b0	-0.009786531
183	0xbb7fc178	-0.0039025228
184	0xbc138b6b	-0.009005408
185	0x3c3c660e	0.011498941
186	0xbb447212	-0.0029975218
187	0xbb606b07	-0.003424348
188	0xbb8b6bd4	-0.0042547975
189	0xbc2074ab	-0.009793441
190	0xbb7d48b1	-0.0038648064
191	0xbba8ed55	-0.0051552453
192	0xbc70a8dc	-0.014688697
193	0xbc5e1b1d	-0.013556269
194	0x3bcf29f4	0.00632214
195	0x3c7e44f3	0.015519368
196	0xbbe335dd	-0.0069339112
197	0x3b9a9128	0.004717011
198	0xbba8466a	-0.005135347
199	0xbb47f119	-0.0030508696
200	0xbc48c050	-0.012252882
201	0x3c1d8018	0.009613059
202	0xbc696c04	-0.014246944
203	0x3c7050bb	0.014667685
204	0x3b0143a5	0.0019724157
205	0xbc13132d	-0.00897674
206	0x3b98b819	0.004660618
207	0x3b4b80e3	0.0031052164
208	0x3c01186d	0.007879359
209	0xbc5d20cf	-0.013496592
210	0xbc6e7d5d	-0.014556256
211	0x3b91010d	0.004425174
212	0xbbd67775	-0.006545002
213	0x3c3f9255	0.011692603
214	0xbc3c6d75	-0.011500706
215	0xbabbb814	-0.0014321827
216	0x3c69a499	0.014260435
217	0x3c850b98	0.01624088
218	0xbbc7f14f	-0.0061017643
219	0x3c4a39ca	0.01234288
220	0xbc812eb6	-0.015769344
221	0x3c3ed758	0.011648022
222	0x3c83deb4	0.016097404
223	0x3c15ff7e	0.009155152
224	0xbc419d24	-0.01181725
225	0xbbc3ae06	-0.005971673
226	0xbc57d04f	-0.013172223
227	0x3bfa144a	0.007631813
228	0xbc5e0706	-0.013551479
229	0xbc494f2e	-0.012286944
230	0x3bc5897f	0.0060283537
231	0xbcc02abb	-0.023457875
232	0xbb14054c	-0.0022586165
233	0xbc5d477f	-0.0135058155
234	0x3b94de87	0.004543129
235	0x3b811360	0.0039390773
236	0x3bc520fe	0.006015896
237	0x3c12b876	0.008955112
238	0x3c3521eb	0.01105545
239	0x3b963633	0.004584098
240	0xbb970967	-0.004609275
241	0xbc429101	-0.011875392
242	0xbc5a8383	-0.013337019
243	0x3bc8e41a	0.0061307075
244	0xbc58b914	-0.01322772
245	0x3b8fcf99	0.0043887612
246	0x3b98250f	0.0046430896
247	0xbc2f21e0	-0.010689229
248	0xbbbfef45	-0.0058573806
249	0x3c3dfa75	0.011595358
250	0xbbf3a0ca	-0.007434939
251	0xbb8a8830	-0.0042276606
252	0x3c1b2a4f	0.009470536
253	0x3c031968	0.008001663
254	0xbbc304d4	-0.0059515033
255	0x3c315ea3	0.010825786

linear.bias f4 [2]
0	0x3c8193b9	0.01581751
1	0x3c41aec2	0.011821451
