skz/linear_probing_sentiment_classifier/training/probe_3.pt (torch, 34264 bytes, 2 tensors)

linear.weight f4 [2, 4096]
0	0xbc05bbc2	-0.008162441
1	0x3c1a8f03	0.009433511
2	0x3d1081e1	0.035280112
3	0xbb07083e	-0.0020604278
4	0x3c1df7b5	0.0096415775
5	0xbba76de8	-0.0051095374
6	0xbc7246a1	-0.014787347
7	0x3adcebf9	0.0016854993
8	0x3c552d66	0.013011312
9	0x3b090f35	0.0020913605
10	0x3c88deaf	0.016707746
11	0x3cdb48e9	0.026768165
12	0xbb2eb911	-0.00266606
13	0x3bf26f50	0.0073985234
14	0xbbba0d93	-0.0056778877
15	0xbbe7a792	-0.0070695365
16	0x3b885a92	0.0041611874
17	0xbad99a77	-0.001660182
18	0x3bbd115f	0.005769893
19	0xbb1d511f	-0.002400465
20	0x3b72e2d6	0.0037061474
21	0xbc48b84d	-0.012250972
22	0xb88d81f2	-6.747608e-05
23	0x3b74edd5	0.0037373204
24	0xbbbf77ff	-0.005843162
25	0x3b491049	0.0030679873
26	0x3c22f694	0.009946484
27	0xbb1008d1	-0.0021977911
28	0xbc536f11	-0.012904898
29	0x3c2d8445	0.010590618
30	0xbc440de6	-0.011966204
31	0x3c38b279	0.01127302
32	0xbc50ee6a	-0.012752155
33	0x3b836833	0.0040102242
34	0xbbc0f76e	-0.005888871
35	0xbc5626da	-0.013070786
36	0x3be50498	0.006989073
37	0xb965869d	-0.00021889289
38	0x3c0afd64	0.008483265
39	0x3c0bb045	0.008525913
40	0xbbae86d4	-0.0053261314
41	0xbc32d5bb	-0.010915215
42	0x3c69b531	0.014264391
43	0xbc08a52e	-0.008340163
44	0xbc7cb1e4	-0.015423272
45	0xbc536691	-0.012902872
46	0x3c161592	0.009160416
47	0xbbe9cc84	-0.007134976
48	0xbbb8757e	-0.0056292405
49	0x3bc49590	0.0059992746
50	0x3ce4b539	0.027918445
51	0x3b02bea2	0.0019950052
52	0x3c0a0824	0.008424792
53	0xbc1aa059	-0.009437644
54	0xbc14de74	-0.00908624
55	0xbba6f93f	-0.0050956304
56	0xbc39b0b2	-0.011333631
57	0xbc3650a4	-0.011127625
58	0x3c7343ce	0.014847709
59	0x3b96a30f	0.004597075
60	0x3c7bf4b8	0.01537817
61	0xbb9d613f	-0.0048028524
62	0xbb2367cb	-0.0024933692
63	0xbbd0fef0	-0.006378047
64	0x3c76c425	0.015061413
65	0x3bfffe7b	0.007812319
66	0xbbf654d6	-0.0075174375
67	0xbc715f67	-0.014732218
68	0xbc39f507	-0.011349923
69	0xbc079209	-0.008274564
70	0x3cda6512	0.026659522
71	0xbc73ab6e	-0.014872415
72	0xbb94e81a	-0.00454427
73	0x3b98143f	0.0046410854
74	0x3c614317	0.013748906
75	0xbbcabdb1	-0.0061871638
76	0x3c06f1f0	0.008236393
77	0x3c35068c	0.011048924
78	0xbc4f3f37	-0.012649349
79	0xbb9eb0f0	-0.00484287
80	0x3cbf51a5	0.02335436
81	0xbbee4dae	-0.0072724437
82	0xbc3b5b09	-0.011435279
83	0xbb0c6eea	-0.0021428415
84	0xbc770f30	-0.015079305
85	0x39d2a825	0.000401796
86	0xbc5cf429	-0.013485947
87	0x3ab93740	0.0014130846
88	0xbc4c4f45	-0.012470071
89	0x3b52493d	0.003208711
90	0x3bf55d04	0.007487895
91	0x3c02bdf2	0.007979857
92	0x3a2d099c	0.0006600858
93	0xbb82854e	-0.0039831763
94	0x3c2453e7	0.0100297695
95	0xbbb0a980	-0.0053912997
96	0xbc38323f	-0.011242448
97	0x3b597c97	0.0033185834
98	0x3c657145	0.014004056
99	0x3b1d920c	0.002404335
100	0xbbcbdb34	-0.0062211994
101	0x3b139549	0.00225194
102	0x3c11466e	0.008866889
103	0xbc5e8fef	-0.013584121
104	0xbc6ff632	-0.0146461
105	0xbc297afe	-0.010344265
106	0x3c504a51	0.012713031
107	0x3b470a4f	0.0030371135
108	0x3c1619ea	0.009161452
109	0x3c475931	0.012167261
110	0xbc2a8042	-0.010406556
111	0xbc4fabcd	-0.012675238
112	0xba8d6ec2	-0.0010790455
113	0xbb6f6498	-0.0036528464
114	0x3c68fbe4	0.014220212
115	0xbbfbe4a1	-0.007687167
116	0xbc761bd4	-0.015021283
117	0x3c3ff813	0.01171686
118	0x3c4aeef1	0.01238607
119	0x3a5bd768	0.0008386285
120	0x3aaa7e7b	0.0013007665
121	0x3b734a8a	0.0037123286
122	0x3b99efba	0.004697767
123	0x3c064970	0.00819622
124	0xbbb72dfc	-0.0055901986
125	0x3b0881ef	0.00208294
126	0xbc5217f8	-0.012823097
127	0xbc6e5d00	-0.01454854
128	0xbc5999da	-0.01328131
129	0x3b81fcc4	0.0039668996
130	0x3c80bd23	0.015715187
131	0xbc3c6254	-0.011498053
132	0x3b0283dc	0.001991502
133	0x3c65fae3	0.014036867
134	0xbb1cdb22	-0.0023934324
135	0x3b44a016	0.0030002645
136	0xba070054	-0.000514989
137	0x3c9d873c	0.019229524
138	0x3c02eb4a	0.007990668
139	0x3bda303e	0.006658583
140	0xbc28c84c	-0.010301661
141	0x3be86884	0.0070925374
142	0xbbc806c6	-0.006104323
143	0x3bd2f889	0.006438319
144	0x3b31b36e	0.0027115005
145	0x3a6893aa	0.00088721013
146	0xbb7761ee	-0.003774758
147	0xbb3014cb	-0.0026867862
148	0x3ac73d6d	0.0015200801
149	0x3c080fc8	0.008304544
150	0x3c01b1a9	0.007915893
151	0xbb8b2a96	-0.00424702
152	0x3a2af08a	0.00065208285
153	0x3c7d5990	0.015463248
154	0xbc78f3c5	-0.015194838
155	0xbbf2c191	-0.007408329
156	0xbc60e3ef	-0.013726219
157	0x3c3235e4	0.010877106
158	0x3c5bcf3f	0.013416111
159	0xbc0cd496	-0.008595606
160	0x3c01b741	0.007917226
161	0x3c72a330	0.014809415
162	0x3c5ddb8f	0.013541116
163	0x3c56b07f	0.013103603
164	0x3bcc57be	0.0062360456
165	0xbc1fe343	-0.009758773
166	0xbc111338	-0.00885468
167	0x3c37ead5	0.011225422
168	0x3ab7aae2	0.0014012719
169	0xbb512421	-0.0031912404
170	0xbb6bb58b	-0.0035966362
171	0xbc117a42	-0.008879246
172	0x3c377873	0.011198151
173	0xbb80d8b6	-0.003932084
174	0xbbf327b8	-0.0074205063
175	0x3c172c18	0.009226821
176	0x3bfcb5c7	0.0077120992
177	0xbc63ac0a	-0.013895998
178	0xbc4d25c8	-0.012521215
179	0x3b8bf668	0.0042713173
180	0x3c74cefc	0.014941927
181	0xbabaec9b	-0.0014261188
182	0x3b859622	0.004076735
183	0xbc289d5b	-0.010291423
184	0xba934975	-0.0011237102
185	0x3bbd8470	0.00578361
186	0x3cab0339	0.02087556
187	0xbbd72b94	-0.006566474
188	0x3c205220	0.009785205
189	0xbc1ac216	-0.009445688
190	0x3bd4e4de	0.0064970097
191	0xbb36856c	-0.0027850522
192	0x3c55cf8b	0.01304997
193	0xbc78e58e	-0.015191449
194	0x3a581fcb	0.00082444836
195	0x3ae6e570	0.0017615985
196	0x3af7e6ff	0.0018913447
197	0xbaf47513	-0.0018650613
198	0x3b3de7ee	0.0028977352
199	0xba47ced5	-0.0007622068
200	0x3ba0220e	0.004886872
201	0x3bfa9403	0.007647039
202	0x3c3f3974	0.011671413
203	0x3c167abe	0.009184537
204	0xbbe581c3	-0.007003994
205	0x3c52f338	0.012875371
206	0xbc63642c	-0.013878863
207	0x3c29dc48	0.010367461
208	0xbc5bdfb4	-0.013420034
209	0x3c4220e3	0.011848661
210	0x3bde8798	0.0067910664
211	0xbb4e9834	-0.0031523826
212	0x3bad985b	0.005297703
213	0x3c7bec41	0.015376152
214	0x3bdc7df1	0.0067288806
215	0x3c8f0451	0.017458113
216	0xbbf131ef	-0.007360689
217	0xbbe6f00c	-0.007047659
218	0x3c3827b2	0.011239933
219	0x3b55fc98	0.0032651778
220	0xbb6783f1	-0.0035326446
221	0x39b7ea3e	0.00035079004
222	0xbbadf185	-0.0053083324
223	0xbc402ee2	-0.011729928
224	0x3c0db024	0.008647952
225	0x3c2494f9	0.0100452835
226	0x3c5eb98c	0.0135940425
227	0xbc7238b4	-0.014784027
228	0x3bf22f3c	0.0073908847
229	0xbc1225c0	-0.008920133
230	0x3b390a72	0.0028234986
231	0xbbb1aa46	-0.0054219095
232	0xbc5876c6	-0.013211912
233	0x3bd1605e	0.0063896617
234	0x39cf068b	0.00039486992
235	0xbc46cd82	-0.012133958
236	0x3b111b4f	0.0022141521
237	0xbc27dc50	-0.010245398
238	0xbbf26fc2	-0.0073985765
239	0x3c364845	0.011125629
240	0x3cc8d639	0.024516212
241	0x3bdd6cfc	0.0067573767
242	0xbb2d1bf8	-0.0026414376
243	0x3c447556	0.011990866
244	0x3bc21bb9	0.005923715
245	0xb9653114	-0.00021857425
246	0xbbdda2ab	-0.0067637763
247	0xbbdfbf03	-0.0068281903
248	0xbc147bdb	-0.009062733
249	0x39d92ab2	0.00041421276
250	0x3c73e3da	0.014885867
251	0x3c08ef8a	0.008357892
252	0xbbe04705	-0.0068444037
253	0x3c45ec55	0.012080272
254	0xbc831447	-0.01600088
255	0xbc5231e9	-0.012829282

linear.bias f4 [2]
0	0x3b9fc0f7	0.004875298
1	0xbb5244a9	-0.0032084382
