skz/linear_probing_sentiment_classifier/training/probe_1.pt (torch, 34264 bytes, 2 tensors)

linear.weight f4 [2, 4096]
0	0x3c0a1ed3	0.008430201
1	0x3bf9b973	0.007620984
2	0xbb997e1a	-0.004684222
3	0xbc0781ee	-0.008270724
4	0x3bea61f0	0.0071527883
5	0x3adbad2d	0.0016759984
6	0xbc2d8bc3	-0.010592404
7	0xba277014	-0.00063872454
8	0xbc307c2e	-0.010771794
9	0x3c18cbc4	0.009325925
10	0xbc4f6c8c	-0.012660157
11	0x3a905f9d	0.0011014823
12	0x3b3362cc	0.002737212
13	0xbb817f25	-0.0039519244
14	0xbafa6575	-0.0019103723
15	0x3b2a703d	0.002600684
16	0xbc0a98fa	-0.008459324
17	0x3c1887ac	0.00930969
18	0x3c263bc9	0.01014609
19	0xbbf64448	-0.007515464
20	0x3c67723f	0.0141263595
21	0xbc2b6556	-0.010461172
22	0xbb9f4751	-0.0048607965
23	0x3c81d1cc	0.01584711
24	0xbc20ee0c	-0.00982238
25	0xbc28c567	-0.010300971
26	0x3c4a8cf0	0.012362704
27	0x3bfe8a9c	0.0077679884
28	0xbc553556	-0.013013205
29	0x3b8db86c	0.0043249633
30	0xbafcf4ca	-0.0019299027
31	0xbae25550	-0.0017267857
32	0x3b7e8023	0.00388337
33	0xbb7aeec5	-0.003828929
34	0xbbc40621	-0.005982176
35	0xbb8cc204	-0.0042955894
36	0xbbb85812	-0.005625733
37	0xbbfac26d	-0.007652572
38	0x3bc856ad	0.006113848
39	0x3bc318cb	0.0059538833
40	0x3c5893c8	0.013218828
41	0x3c593355	0.013256867
42	0x3c192e27	0.0093493825
43	0x3c387b49	0.011259862
44	0x3d22080b	0.03955845
45	0x3c6e26c1	0.014535607
46	0xbad625b0	-0.0016338136
47	0x3c471dac	0.01215307
48	0x3c0b2b31	0.008494184
49	0xbb42a0b4	-0.0029697837
50	0xbc0fe72a	-0.008783141
51	0xbba5e67c	-0.0050628763
52	0xbc6d03ca	-0.014466235
53	0xbc302069	-0.010749915
54	0x3c89a8d2	0.016804133
55	0x3c6d998c	0.01450194
56	0x3a967b37	0.0011480813
57	0x3b70385e	0.0036654691
58	0x3bb09da2	0.005389885
59	0x3bc8e0d3	0.0061303168
60	0xbc4151c9	-0.011799284
61	0x3c6e04f6	0.01452755
62	0xba0893c2	-0.0005210006
63	0x3c6ffb81	0.014647366
64	0x3bed1d01	0.0072361236
65	0xbb8a0d27	-0.0042129937
66	0xbbb4a7d4	-0.0055131707
67	0xbc8b5e08	-0.017012611
68	0x3c0258a8	0.007955708
69	0x3c5978f7	0.013273469
70	0x3c50d38c	0.012745749
71	0x3c550c7b	0.013003464
72	0xbc852f80	-0.016258001
73	0xbb9eb802	-0.004843713
74	0xbc75e92a	-0.015009204
75	0x3973af1b	0.00023239518
76	0x3b21e3e5	0.0024702486
77	0x3c0da066	0.008644199
78	0x3c6851c1	0.014179648
79	0x3aa2670b	0.0012390328
80	0x3c5c4dca	0.013446281
81	0xbc353878	-0.0110608265
82	0x3c6933a8	0.014233507
83	0xbbb00b68	-0.0053724535
84	0xbc37a7f7	-0.0112094795
85	0x3bccba48	0.0062477924
86	0x3c0547bd	0.0081347795
87	0xba8f36fa	-0.0010926418
88	0x3c525bad	0.01283924
89	0x3c3815ee	0.011235697
90	0xbc2dbe37	-0.010604433
91	0x3c105cda	0.0088112
92	0x3bce3e4d	0.006294048
93	0x3baaefd2	0.005216577
94	0xbbcfd5a8	-0.0063426085
95	0xb8aba9fc	-8.1855775e-05
96	0xbc762e8d	-0.015025747
97	0xbb7d21eb	-0.0038624953
98	0x385ecd04	5.311986e-05
99	0xbc2889e9	-0.010286787
100	0xbc09fd38	-0.008422188
101	0xbbc2ff32	-0.005950832
102	0x3c4bb6e2	0.012433739
103	0x3c2ea316	0.010659
104	0xbb9d7f5f	-0.0048064436
105	0x3c755a50	0.014975145
106	0x398cb258	0.00026835757
107	0xbc18b1fa	-0.009319777
108	0xbc0d1651	-0.008611278
109	0xbc5ef37a	-0.013607854
110	0x39ecbac3	0.00045152576
111	0xbb72b4fe	-0.003703415
112	0xbb8a6ce9	-0.004224409
113	0x3bac4aeb	0.0052579544
114	0x3bd7b21d	0.006582512
115	0x3ba503ca	0.005035852
116	0x3be24885	0.0069056177
117	0x3c5db821	0.013532669
118	0xbc3538f9	-0.011060947
119	0x3b42e4ab	0.0029738348
120	0xbbbe4f8c	-0.0058078226
121	0x3b6f95d7	0.0036557817
122	0xbc40a9f9	-0.011759275
123	0xbab6dd1d	-0.0013951395
124	0xbc54c62c	-0.012986701
125	0x3c879834	0.016552068
126	0x395b01bc	0.00020886114
127	0xbb904f49	-0.004403983
128	0x3bfa5ad7	0.0076402235
129	0x3b105195	0.0022021283
130	0x3b2b3f89	0.00261304
131	0x3c5a88d2	0.013338285
132	0xbc1d8f65	-0.009616707
133	0xbc6471af	-0.01394312
134	0xbc976388	-0.018480077
135	0xbc10a33e	-0.0088279825
136	0xbc20011a	-0.009765888
137	0x3b92bba3	0.0044779344
138	0xbc372449	-0.011178085
139	0x3c5e572e	0.01357059
140	0xbb4799af	-0.0030456593
141	0x3b835171	0.0040075113
142	0xbb9a13e7	-0.0047020796
143	0xbc64dbb1	-0.013968394
144	0x3c18dc39	0.009329849
145	0x3c479062	0.01218042
146	0xbc8541ba	-0.016266692
147	0x3c02851b	0.007966305
148	0x3c3339d0	0.010939077
149	0xbb6fd2a2	-0.0036594053
150	0xbc08537c	-0.0083206855
151	0x3b96489a	0.0045862915
152	0x3ba44c56	0.0050139828
153	0xbc15454c	-0.00911076
154	0xbc4c7055	-0.012477954
155	0xbc3d48ff	-0.011553048
156	0xbc2b31f1	-0.010448919
157	0xbbf198e4	-0.0073729623
158	0xba9fc1fc	-0.0012188549
159	0x3c834249	0.016022818
160	0xbc4edc69	-0.012625792
161	0x3b09f952	0.0021053148
162	0x3b5ab555	0.0033372242
163	0xbb3cef2a	-0.0028829076
164	0xbb7e6c3d	-0.003882184
165	0x3c6e9a4b	0.0145631535
166	0x3c4701fc	0.012146469
167	0xbbce5df8	-0.006297823
168	0xbafe2b86	-0.0019391633
169	0x3bf791f1	0.0075552394
170	0xbc4a6713	-0.012353676
171	0xbc4b9119	-0.012424731
172	0xbced92c0	-0.02900064
173	0xbbbdf76e	-0.005797318
174	0x3c0250c8	0.00795383
175	0xbc8354f4	-0.01603172
176	0x3aa3b247	0.0012489044
177	0xbc7e8481	-0.015534521
178	0x3b94b087	0.0045376453
179	0xbc0c8d98	-0.00857868
180	0xba324952	-0.0006801087
181	0x3c0537b1	0.008130954
182	0xbb278d89	-0.002556654
183	0xbc4723af	-0.012154504
184	0xba1d0d0b	-0.0005991018
185	0x3c694a1f	0.014238863
186	0x3c182602	0.0092864055
187	0x3bd15e82	0.00638944
188	0x3c35bc15	0.0110922055
189	0x3c01f7dd	0.00793263
190	0xbc2931e4	-0.010326836
191	0xbc4976c4	-0.012296382
192	0x3c80d02e	0.015724268
193	0x3c959bd5	0.018262783
194	0xbbae8efa	-0.0053271027
195	0xbb48aee4	-0.003062182
196	0xba69b92c	-0.00089158374
197	0xbc2a5fde	-0.010398833
198	0x3b8801ec	0.0041506197
199	0xbc16d8e2	-0.009206982
200	0xbc72787b	-0.014799233
201	0x3983fc86	0.00025174412
202	0xbc67e472	-0.014153587
203	0x3c914ae2	0.017735902
204	0x3aeab73e	0.0017907394
205	0xbc6f9c76	-0.014624706
206	0xbc6e9292	-0.014561312
207	0x3c2793ff	0.010228156
208	0xbc2d44d8	-0.010575496
209	0xbc496d8d	-0.012294185
210	0x3b72fc9e	0.003707684
211	0xbb30a31c	-0.002695269
212	0xbc70cdfe	-0.01469755
213	0xbc496ad1	-0.012293533
214	0xbc75d694	-0.015004773
215	0xbc06c3d3	-0.008225399
216	0x3c0a6a96	0.008448264
217	0xbc3cb6c2	-0.011518182
218	0xbbc3b7ce	-0.005972839
219	0x3bc6b501	0.006064058
220	0x3ac3932c	0.001492118
221	0x3c674b73	0.01411711
222	0x3bb5fc27	0.0055537405
223	0xba7f4f37	-0.0009739282
224	0xbb64c959	-0.0034910052
225	0xbc894f8f	-0.01676157
226	0x3a827e75	0.00099559
227	0x3bf8b45f	0.0075898613
228	0xbba5fdfa	-0.0050656768
229	0xbbaf3c05	-0.005347731
230	0xbc2a9d58	-0.01041349
231	0xbc4b5b51	-0.012411908
232	0x3bd97d0e	0.006637222
233	0xbc561401	-0.013066293
234	0xbbf97ce9	-0.0076137674
235	0xbcc754fe	-0.02433252
236	0xbb9a5f23	-0.004711048
237	0xbc292bb0	-0.010325357
238	0x3a8f2b92	0.0010923019
239	0x3c75b1ec	0.014996033
240	0xbad571a6	-0.001628448
241	0x3b8d30de	0.004308804
242	0x3c3d3c71	0.011550055
243	0x3a3ab15c	0.00071217655
244	0x3c16e17b	0.009209032
245	0xbc167f69	-0.00918565
246	0xbc49e9fb	-0.012323852
247	0x3acd6b98	0.0015672324
248	0x3c835368	0.016030982
249	0xbc353ead	-0.011062306
250	0x3a411014	0.00073647615
251	0x3bccb76c	0.0062474515
252	0xbc2832fb	-0.010266061
253	0x3b2aff7a	0.0026092217
254	0xbbe82189	-0.007084076
255	0xbbd7a226	-0.006580609

linear.bias f4 [2]
0	0x3c6717e8	0.014104821
1	0x3c236404	0.009972576
