skz/linear_probing_sentiment_classifier/training/probe_2.pt (torch, 34264 bytes, 2 tensors)

linear.weight f4 [2, 4096]
000000 5b a5 72 bb 0d 55 ba ba 52 2b 13 bc 4d bc 64 3c
       -0.003702483 -0.0014216021 -0.008982496 0.01396091
000010 6e 6b e3 bb 44 40 64 bc cd b3 6f 3b 1f 48 26 3c
       -0.006940297 -0.013931338 0.0036575675 0.010149031
000020 b1 a0 2d 3c 71 f8 08 bc d9 2b be 3a 89 00 17 bc
       0.010597394 -0.008360014 0.0014508917 -0.009216436
000030 62 c6 c8 3b e8 f8 33 bc 37 ac 4d bc e5 e6 f3 3b
       0.0061271647 -0.010984637 -0.012553266 0.0074432963
000040 13 77 2e 3b 6c f5 33 bc 0d 84 40 3b d8 40 59 bc
       0.0026621267 -0.010983806 0.0029375583 -0.013260089
000050 f3 24 63 3c 6f 33 5d 38 9d ba 1f 3c e7 15 9e 3b
       0.01386379 5.2738407e-05 0.009749082 0.0048243883
000060 8e c9 11 ba 65 60 80 3c 6e f2 ab 3a ff 0d a7 ba
       -0.0005561345 0.015670964 0.0013118514 -0.001274526
000070 f2 72 5a ba 6d f7 94 3a d0 d6 d2 3b 35 0b 50 3c
       -0.0008333168 0.0011365243 0.006434299 0.012697984
000080 51 55 5b bc fe 43 bf 3b 9c 94 61 bc 9d f3 a2 b9
       -0.01338704 0.0058369627 -0.013768341 -0.00031080554
000090 51 db 0d 3c 56 55 81 bb ae 71 04 b9 84 ef 6a bc
       0.008658246 -0.0039469404 -0.0001263085 -0.014339332
0000a0 64 66 6d bc db bf e9 3b e4 b6 1a 3c 7b 0f 4b bc
       -0.014489744 0.0071334667 0.009443019 -0.012393828
0000b0 a4 0a 17 bc 8b b6 03 3c b7 f5 74 bc b1 08 6f bb
       -0.0092188455 0.008039127 -0.014951161 -0.0036473686
0000c0 61 9a 0d bc 40 b6 6b bc 49 84 32 3b 9d 2e 05 3b
       -0.008642764 -0.0143867135 0.0027239493 0.0020321973
0000d0 3c 94 d4 bb e5 d6 1d 3c a4 1f 66 3c 39 39 31 bc
       -0.0064873975 0.009633754 0.01404563 -0.010816866
0000e0 92 60 6b 3c be 5f 20 3b d4 0f 76 bc c2 bc 49 3c
       0.014366286 0.002447113 -0.015018422 0.01231307
0000f0 d3 63 0c 3c f6 00 80 3b e9 f7 04 bc 84 32 dc ba
       0.008568722 0.0039063646 -0.008115747 -0.0016799723
000100 53 0c 01 3c 7c d5 4d bc cb ac 40 bc 18 0f 3d 3c
       0.0078764735 -0.012563106 -0.011759947 0.011539243
000110 1c 90 42 bc 80 03 c9 bb 54 d3 12 3b 6b aa f4 3b
       -0.011875179 -0.0061344504 0.0022403793 0.0074666045
000120 2b f9 4a 3c 54 d4 26 bb b0 bd 10 bc d4 79 ed bb
       0.012388508 -0.0025456147 -0.0088342875 -0.007247189
000130 7a 3c 62 bc 84 3b ca bb 48 35 a6 3a 5f 3f 60 bc
       -0.013808364 -0.0061716456 0.0012680674 -0.013686984
000140 f4 ae ef 3b 26 ee 5e 3c 12 57 3e 3c 8d 1e 95 bc
       0.007314557 0.013606584 0.011617439 -0.018203044
000150 e0 fd da 3b d9 ce 2b bc 83 aa 16 3c e5 2f a4 bb
       0.0066830963 -0.010486328 0.009195927 -0.0050105923
000160 d4 a4 a3 ba ac a1 2b 3c f9 69 e9 3b 7d 5b 2a bc
       -0.0012485036 0.010475557 0.0071232286 -0.010397789
000170 fe 8b 2c bc 04 ff 9f bb af 57 e4 bb e8 78 34 bc
       -0.010531424 -0.004882695 -0.0069684605 -0.011015154
000180 cb ae 92 3b 6a 0d 51 bc d3 c9 60 ba e7 23 52 3a
       0.0044764034 -0.012759546 -0.0008574996 0.0008016214
000190 f7 64 1f 3b 9d 3f 95 bb 2b c3 5b bc 8d b3 bf 3a
       0.0024321654 -0.0045547024 -0.013413231 0.0014625654
0001a0 db fc 50 3c d7 c9 62 bc bf b8 40 3c 8d 33 1a 3c
       0.012755598 -0.013842068 0.011762797 0.009411705
0001b0 33 df 7a 3b d1 44 a4 3b 1c 40 07 3c 27 b5 72 bc
       0.003828001 0.0050130864 0.008255031 -0.014813698
0001c0 0d d1 b9 ba 9f 5b 0d bc 13 2c 23 bc 7c 51 5a 3c
       -0.0014176682 -0.008627801 -0.009959239 0.013325091
0001d0 5b 26 11 bb a7 ab 67 bc 9c 2c 63 3c 96 3f 75 bc
       -0.0022148106 -0.014140046 0.013865616 -0.014968773
0001e0 2f d1 56 bc 93 16 43 3c 24 b5 42 bc d8 c0 aa 3a
       -0.013111397 0.011907238 -0.011884008 0.0013027443
0001f0 65 f4 47 bc 78 3f d9 bb 8d e7 43 bb 3b 60 5f 3c
       -0.012204264 -0.0066298805 -0.0029892654 0.013633783
000200 c7 57 6a 3c fd aa 8d bb e4 83 ff 3b 5f d3 2e bc
       0.014303154 -0.004323362 0.007797705 -0.010670512
000210 e1 a7 aa 3b ce bc c0 3b d5 01 ec bb bd 07 da ba
       0.005208001 0.0058818823 -0.007202367 -0.0016634386
000220 ed d9 87 bb f6 f3 0b 3c f7 5a 42 3c b0 78 47 3c
       -0.004145852 0.008542052 0.011862508 0.01217477
000230 10 9e e0 3b 2c 3a a9 3b dd 62 ce 3a b5 bd 01 bc
       0.00685478 0.0051644053 0.0015746016 -0.007918765
000240 c4 e4 90 3c 4a 7c 80 bc da 76 39 3b c1 5b b6 39
       0.017687209 -0.015684266 0.00282996 0.00034782107
000250 6b 5f 6c bb 86 ed 64 bc 07 eb ee 3b da 22 77 3b
       -0.0036067616 -0.013972646 0.007291201 0.0037709982
000260 47 16 56 3c 88 bf 81 bc e5 d1 21 bb 45 c6 37 bc
       0.013066835 -0.0158384 -0.0024691757 -0.011216705
000270 23 6d 28 3c d0 57 76 3b fa 0a ff ba ba 36 5b 3c
       0.0102799265 0.0037588961 -0.0019458227 0.013379747
000280 03 99 de bb 1e bc a3 bb 5f 60 19 bc 52 d8 5d bb
       -0.0067931428 -0.0049967906 -0.009361356 -0.003385086
000290 6a e5 58 3c b7 2d 0f 3c de 5a ed 39 4e f3 2f bc
       0.01323829 0.008738927 0.00045271864 -0.010739161
0002a0 6d db 7e 3c 80 30 31 3b ce cd 59 3c 6f 5b c0 ba
       0.015555245 0.0027036965 0.013293697 -0.0014675687
0002b0 1e 15 41 3c 13 38 f6 3b a6 e2 a2 3a 99 c6 dc bb
       0.01178482 0.007514009 0.0012427166 -0.006737542
0002c0 9d 4c f2 ba b1 52 2d bc 8a f4 8e bb 27 a0 39 3c
       -0.0018485967 -0.010578797 -0.0043626474 0.011329687
0002d0 0d 76 66 3b 10 7b 21 bc c7 25 1e bb 2d 55 ae 3b
       0.0035165579 -0.009856001 -0.0024131404 0.0053202123
0002e0 ab 07 3f bc 0a f9 4a 3b 20 49 66 bc f4 86 8e 3c
       -0.011659543 0.0030971193 -0.01405552 0.017398335
0002f0 2a 10 76 3c 43 ea cd 3b 68 65 e2 3b d2 17 64 3a
       0.015018502 0.0062840297 0.006909061 0.0008701059
000300 0e 38 6c bb 01 f6 80 bc 70 ad 29 bb 57 13 d1 bb
       -0.0036044153 -0.015742304 -0.002589073 -0.0063804793
000310 de 02 0a 3b f7 41 58 b8 46 70 29 bc ee 52 4f bc
       0.0021058838 -5.1559848e-05 -0.0103417095 -0.012654049
000320 a7 b5 e2 bb be f0 0c bb 57 58 ab bb 3d 6c 12 bc
       -0.0069186273 -0.0021505798 -0.005229037 -0.008936939
000330 47 42 8f bb 45 67 32 3c 99 62 ff 3b 32 ca de 3b
       -0.0043719145 0.010888879 0.007793736 0.006799006
000340 9c 88 28 bb f3 03 33 bc eb ee 52 3c c5 e3 95 bb
       -0.002571619 -0.010926235 0.012874345 -0.0045742714
000350 77 e3 38 3b ea b6 2d 3c 18 ae 73 bc 61 38 33 bc
       0.0028211751 0.010602692 -0.01487305 -0.010938735
000360 cd f6 cb 39 76 9c 29 3b 17 51 42 bc ad c6 e5 3b
       0.00038903058 0.0025880612 -0.011860154 0.0070122094
000370 f9 41 5b bc 8b 75 a0 bb 39 92 7d ba b0 32 d2 3b
       -0.013382428 -0.0048968247 -0.0009672973 0.006414734
000380 0d e0 20 bc 92 85 76 bc f0 8d 63 3c ca 0d 7f bc
       -0.009819043 -0.015046494 0.013888821 -0.015567252
000390 7a 67 1e bb c2 f8 83 3c ff 93 0f b9 78 df bb 3b
       -0.0024170564 0.016109828 -0.00013692676 0.0057334267
0003a0 87 eb 11 3c cc 06 04 3c cd e6 00 bc 0e 3f 84 bc
       0.008906252 0.008058261 -0.007867527 -0.016143348
0003b0 65 59 63 bc 07 27 58 bc a5 b2 5f bc d4 fe 82 bc
       -0.013876294 -0.013192899 -0.013653432 -0.015990652
0003c0 52 5e e8 bb f5 64 e7 bb a7 c5 1c 3c 33 9c a0 bb
       -0.007091322 -0.0070615956 0.009568608 -0.004901433
0003d0 8c 81 10 3a e7 44 63 3c 9a f4 25 3b 15 83 36 3c
       0.0005512468 0.013871408 0.0025322796 0.011139651
0003e0 85 6e 17 bc 63 47 a7 bb 71 42 21 3c 05 8e 4c 3c
       -0.0092426585 -0.0051049455 0.009842501 0.012485032
0003f0 8d 20 9e 3b c2 09 c0 ba e9 c8 4c bc f0 f4 0c bb
       0.0048256577 -0.0014651346 -0.012499073 -0.0021508299

linear.bias f4 [2]
000000 92 fc 8c bb e4 6e 42 bc
       -0.0043025697 -0.011867259
