skz/linear_probing_sentiment_classifier/training/probe_3.pt (torch, 34264 bytes, 2 tensors)

linear.weight f4 [2, 4096]
0	0xbba4d7d4	-0.0050306115
1	0x3a889b74	0.0010422305
2	0xbb8abab2	-0.0042336816
3	0xbc4c686a	-0.012476066
4	0xbc3b0739	-0.011415296
5	0xbb1579a5	-0.0022808101
6	0x3bf91b0f	0.0076021026
7	0xbc7dad2a	-0.01548318
8	0x3b3fb511	0.002925221
9	0x3c6b35f1	0.014356122
10	0xbc26eb0a	-0.010187874
11	0x3c4b6d66	0.012416219
12	0x3c811d41	0.01576102
13	0x3bddacdc	0.006764991
14	0xbc236db6	-0.009974888
15	0xbd02f73b	-0.03197406
16	0xbc13e4f6	-0.0090267565
17	0x3c4126f0	0.011789069
18	0xbc02fdc6	-0.007995075
19	0xbaf7f855	-0.0018918613
20	0x3a18569f	0.00058112474
21	0xbbc489c9	-0.0059978706
22	0xbadedd7e	-0.0017003266
23	0x3c19824a	0.009369442
24	0x3c5a8a3e	0.013338624
25	0xba47cf71	-0.0007622159
26	0x3c54bb75	0.012984146
27	0x3b86d873	0.004115158
28	0x3ba8021d	0.005127205
29	0x3c5e1ed9	0.013557159
30	0x3b2b322e	0.0026122439
31	0x3b2c692c	0.0026307805
32	0xbbe86560	-0.007092163
33	0xba83e918	-0.0010063974
34	0x3b7b42a1	0.0038339274
35	0x3be54f5c	0.0069979858
36	0xbc29e076	-0.010368457
37	0xbbf4bbe4	-0.0074686874
38	0xbb1fc86c	-0.0024380935
39	0x3988a859	0.0002606537
40	0x3c0cf288	0.008602746
41	0x3c64a501	0.013955356
42	0x3c06c372	0.008225309
43	0x3acb6c05	0.0015519863
44	0xbc3f0239	-0.011658245
45	0x3ac4d4e0	0.0015017055
46	0xba7bbdb2	-0.0009603157
47	0xbc5c347e	-0.0134402495
48	0x3c20bcb4	0.009810615
49	0x3bc76eb0	0.006086193
50	0xbc8ce9d2	-0.017201338
51	0xbc4d7410	-0.0125398785
52	0xbc104ed1	-0.008807854
53	0xbc43335a	-0.011914099
54	0x3c5e6564	0.013573978
55	0xbadee9ab	-0.0017006894
56	0xbc6222c3	-0.013802233
57	0xbc3b3983	-0.011427286
58	0xbc4c734c	-0.012478661
59	0xbbf75fd8	-0.0075492673
60	0x3bce5ce4	0.0062976945
61	0x3c4d9d2a	0.012549678
62	0x3cca8ac5	0.024724374
63	0x3aa7f0e8	0.0012812885
64	0xbb844d5e	-0.004037543
65	0x3c0f4e0e	0.008746637
66	0x3bd8ffc8	0.0066222884
67	0x3bf7ec8b	0.00756604
68	0x3a50ee4f	0.0007970081
69	0xbc223ffa	-0.0099029485
70	0xbc7a2904	-0.015268568
71	0x3c1b92fc	0.009495493
72	0xbc4c4b48	-0.01246912
73	0xbb2045a2	-0.0024455567
74	0x3c4abcd7	0.0123741245
75	0x3c54f4fb	0.012997861
76	0xbbda38ad	-0.0066595883
77	0x3b88ed28	0.004178662
78	0xbc26e4db	-0.010186399
79	0x3c05a824	0.008157764
80	0xb98e5f94	-0.00027155562
81	0xbc8022d6	-0.015641611
82	0xba99bc74	-0.0011729137
83	0xb583a672	-9.808703e-07
84	0xbabdf254	-0.0014491775
85	0xbc0ebb5b	-0.008711661
86	0xbc7350a9	-0.014850774
87	0xbc58bfc8	-0.013229318
88	0xbc28b4ff	-0.010297059
89	0x3c1f1386	0.009709245
90	0x3c2e7baf	0.010649606
91	0x3c47224d	0.012154174
92	0xbca1c67f	-0.01974797
93	0x3ad39282	0.0016141685
94	0x39b65824	0.00034779415
95	0x3c369e36	0.011146119
96	0x3c41e1db	0.011833633
97	0xbbbe75a3	-0.0058123632
98	0xbb2cf51e	-0.0026391218
99	0x3bfa5031	0.007638954
100	0xbc151efa	-0.009101624
101	0xbc2b1372	-0.010441648
102	0xbc803cfd	-0.015654081
103	0x3c1f8ab3	0.009737658
104	0x3b82062d	0.0039680214
105	0xbb7520b9	-0.0037403537
106	0xbaf83e9c	-0.0018939557
107	0xbc755f81	-0.014976383
108	0xbc344766	-0.011003351
109	0xbc7106c9	-0.01471109
110	0xbc0a8770	-0.008455142
111	0x3a6a9d34	0.00089498167
112	0xbc0ad9a2	-0.008474739
113	0xbc1ffee5	-0.009765361
114	0x3c153581	0.009106995
115	0x3af156b9	0.0018412686
116	0x3a86ede0	0.0010294281
117	0x3c4ce269	0.012505152
118	0xbbfd4b41	-0.007729918
119	0x3b2b3e07	0.00261295
120	0xb9166c25	-0.00014345402
121	0x3b2ac251	0.0026055763
122	0xbb3d07df	-0.0028843803
123	0xbbf1e8e2	-0.007382498
124	0xbb082278	-0.0020772498
125	0xbbc7400b	-0.0060806326
126	0xbbc6f8d4	-0.006072143
127	0x3bb3d25a	0.0054877223
128	0xbab1ce16	-0.0013565447
129	0xbc7165b6	-0.014733722
130	0xbbfceba0	-0.0077185184
131	0xbc68b3c4	-0.014203016
132	0x3baf4df7	0.0053498703
133	0xbc66eb01	-0.014094115
134	0xbaf43aae	-0.001863321
135	0x3c094bea	0.008379916
136	0xbc368066	-0.011139011
137	0xbc960ba0	-0.01831609
138	0x3c4e778c	0.012601744
139	0xbbe12422	-0.0068707624
140	0xbc3e3536	-0.011609366
141	0x3c092731	0.00837116
142	0x3bdbbdd2	0.006705978
143	0xbc23cf6c	-0.009998184
144	0xbbd1434a	-0.0063861953
145	0x3b7e05d0	0.0038760789
146	0xbc700b19	-0.014651083
147	0xbc5f8dc6	-0.013644641
148	0x3c5c746b	0.013455491
149	0xbbc758c3	-0.0060835793
150	0x3abf4f9c	0.0014595869
151	0x3b04ada4	0.00202451
152	0xbd211a38	-0.039331645
153	0xbc65b21e	-0.014019517
154	0xbc1e3ebf	-0.0096585145
155	0xbb9150ab	-0.004434665
156	0x3b911b9b	0.0044283397
157	0xbb2015f7	-0.0024427155
158	0x3c479fcf	0.012184097
159	0xbc618048	-0.013763495
160	0x3accf2cf	0.0015636327
161	0x3a931c0a	0.0011223566
162	0x3bf59818	0.0074949376
163	0xba78dbc5	-0.00094931974
164	0xbbac980c	-0.005267149
165	0xbc073581	-0.008252502
166	0xbb2c4327	-0.0026285143
167	0x3b5824e0	0.0032980964
168	0x3c79f63c	0.015256461
169	0x3c7dcda2	0.015490921
170	0x3b4bd178	0.0031100195
171	0x3b4cc6d4	0.003124644
172	0x3923e661	0.00015630714
173	0xbc452ec7	-0.012035078
174	0x3a813148	0.0009856606
175	0xbb5a0f6e	-0.0033273357
176	0x3c57654a	0.013146708
177	0x3bd878cd	0.0066061975
178	0x3bf06c32	0.0073371166
179	0x3c00719c	0.007839587
180	0x3b200300	0.002441585
181	0xbb99214a	-0.004673158
182	0x3b8856d8	0.004160743
183	0xbbb8f3cd	-0.0056442977
184	0x3bc774bc	0.006086914
185	0xbb09d73d	-0.0021032833
186	0xbd037c90	-0.032101214
187	0x3c3e716c	0.011623722
188	0x390b5797	0.00013288703
189	0xba7e894f	-0.00097097916
190	0xbbf8d592	-0.007593819
191	0xbc37b94d	-0.011213613
192	0xba7dfdb0	-0.00096889865
193	0xbc055c62	-0.008139702
194	0xbc96af87	-0.018394245
195	0xbc04f4ef	-0.008115037
196	0x3c1b6e87	0.009486801
197	0x3ad06da0	0.0015901811
198	0x3c03366e	0.0080085825
199	0xbb7519d2	-0.0037399423
200	0xbc048f20	-0.008090764
201	0x3c5462ff	0.012963056
202	0xbc5a4274	-0.013321508
203	0x3c145f46	0.009055918
204	0xbc0f54af	-0.0087482175
205	0x3a783396	0.0009468136
206	0x3bc97a63	0.006148623
207	0xbc4dab49	-0.012553045
208	0x3b68240b	0.0035421874
209	0x3c723d59	0.014785134
210	0xbb5e82e5	-0.003395253
211	0xbb999cde	-0.0046878895
212	0xbc01b275	-0.007916083
213	0xbbaca801	-0.005269051
214	0xbc423a58	-0.011854731
215	0x3c783543	0.015149417
216	0xbbb35ee8	-0.00547396
217	0x3b5737f3	0.0032839745
218	0xbc2c1392	-0.010502713
219	0x3c0a376c	0.008436065
220	0x3c77cb13	0.0151241
221	0xbbe91fce	-0.007114387
222	0x3b3dca6c	0.0028959764
223	0x3b643d16	0.003482645
224	0x3c2c5215	0.010517617
225	0xbb36919d	-0.0027857788
226	0xbb83c045	-0.004020723
227	0xbc6df5e5	-0.014523958
228	0xbb62818f	-0.0034562086
229	0xbb385254	-0.0028125243
230	0xbbd36bdd	-0.0064520673
231	0xbb9115fd	-0.00442767
232	0xbaea026d	-0.0017853506
233	0x3b2e926f	0.0026637574
234	0xbb487037	-0.0030584463
235	0xbabdf3e1	-0.0014492237
236	0x3bc9b5d7	0.00615571
237	0x3b864641	0.0040977304
238	0xbbb6a4b5	-0.005573834
239	0xbc38d4c6	-0.011281198
240	0xbcb4b2cf	-0.022057919
241	0xbb99c948	-0.004693184
242	0x3c4ffaf4	0.012694109
243	0xbb55061d	-0.0032504865
244	0x3c43cbe6	0.011950469
245	0x3b4b0683	0.0030979223
246	0x3c815b8c	0.015790723
247	0xbc7c21a3	-0.015388879
248	0xbbdf9677	-0.0068233567
249	0x3c0855e8	0.008321263
250	0x3c13a904	0.009012464
251	0x3c3b26e1	0.011422844
252	0xbb586ca9	-0.003302375
253	0x3c9826f3	0.01857326
254	0xbc0bbfc6	-0.008529609
255	0xbc68de35	-0.014213135

linear.bias f4 [2]
0	0x3bda8ae9	0.0066693914
1	0x3b596dc7	0.0033177005
