skz/linear_probing_sentiment_classifier/training/probe_0.pt (torch, 34264 bytes, 2 tensors)

linear.weight f4 [2, 4096]
0	0xbc80239a	-0.015641976
1	0xbc2e6ca8	-0.010646023
2	0x3bd2269a	0.006413293
3	0x3a342632	0.00068721466
4	0x3b09fc54	0.002105494
5	0xb939ec69	-0.00017731044
6	0xbb0ffa69	-0.0021969324
7	0x3c4506dc	0.012025561
8	0x3c5bbcbf	0.0134117
9	0xbb743b2a	-0.003726671
10	0x3bdef11c	0.006803645
11	0xbc38de31	-0.011283443
12	0xbbf6e957	-0.0075351405
13	0x3b8e6666	0.004345703
14	0x3c33f245	0.0109830545
15	0x3b467470	0.0030281805
16	0x3c43de08	0.011954792
17	0xbb34f4b5	-0.0027611677
18	0xbbd46328	-0.006481547
19	0x3c53b40f	0.012921347
20	0x39e734fb	0.00044099227
21	0x3c264b0e	0.01014973
22	0xbb4374a9	-0.0029824174
23	0xbc046505	-0.008080726
24	0x3a49d9d3	0.00077
25	0xbc443c02	-0.011977198
26	0xbb6f5551	-0.0036519358
27	0x3c364767	0.011125422
28	0xbc158c16	-0.009127637
29	0x3bd1eb46	0.0064062206
30	0xba015f3f	-0.0004935152
31	0xbbbe2e91	-0.005803891
32	0x3a2453c2	0.00062685844
33	0x3c5c8e94	0.013461728
34	0xbc711cc4	-0.014716331
35	0x3c25a372	0.010109769
36	0x3a84f6cc	0.0010144352
37	0x3c247858	0.010038458
38	0x3c3c2383	0.011483076
39	0xbbc7ca33	-0.006097102
40	0xbc6f4c70	-0.014605626
41	0x3bf2e22e	0.0074122166
42	0xbb23958f	-0.002496097
43	0x3a0b4847	0.00053131994
44	0x3c436660	0.011926264
45	0x3c24bcee	0.01005481
46	0x3c204c5f	0.009783833
47	0xbb152133	-0.0022755384
48	0xbbed4788	-0.007241193
49	0x3be11c21	0.0068698083
50	0x3c2adb75	0.010428299
51	0xb87af6b0	-5.983439e-05
52	0xbbf5a4dc	-0.0074964594
53	0xbc045d0b	-0.008078824
54	0xbc6a0572	-0.014283525
55	0x3c798e98	0.015231751
56	0xbc221caa	-0.009894529
57	0x3a819e05	0.0009889012
58	0xbc1ea113	-0.009681958
59	0x3c71acb3	0.014750647
60	0xbb858216	-0.0040743453
61	0x3c661171	0.014042244
62	0xbbc971e0	-0.006147608
63	0xbc74ce38	-0.0149417445
64	0xbb01d745	-0.0019812149
65	0x3c58c25b	0.013229932
66	0xbbeda518	-0.0072523467
67	0x3c155e33	0.009116697
68	0x3c1beaec	0.009516459
69	0x3bd6d66f	0.006556324
70	0x3c3a9b61	0.011389584
71	0x3c4addb5	0.012381961
72	0x3bb76275	0.005596454
73	0xbc325b6c	-0.0108860545
74	0x3b857a55	0.004073421
75	0x3bd2ebc1	0.0064367955
76	0x3c5d06ed	0.013490421
77	0xbbc09a7b	-0.0058777905
78	0xbc4ee264	-0.012627218
79	0x3c685054	0.014179308
80	0x3bf18620	0.0073707253
81	0xbbd1901a	-0.006395352
82	0x3c17a9bb	0.0092567755
83	0xbc593c37	-0.013258985
84	0x3c1a01a1	0.009399802
85	0xbc2321c9	-0.0099567855
86	0x3c677086	0.014125949
87	0x3aa422b3	0.0012522548
88	0x3c881f71	0.016616555
89	0x3c5cce23	0.013476881
90	0x3b510d7f	0.0031898913
91	0x3b8f5dd4	0.004375199
92	0xbb7b6694	-0.0038360702
93	0xbc3a570e	-0.0113732945
94	0xbc1fce00	-0.009753704
95	0xba162819	-0.0005728021
96	0x3c025daa	0.007956902
97	0xbbce589c	-0.006297184
98	0xbbf9a964	-0.00761907
99	0x3bf4245e	0.0074506244
100	0x3b3c0792	0.0028691036
101	0x3c695fc4	0.014244024
102	0xbc691fcf	-0.014228775
103	0x3b56f0b4	0.003279728
104	0xbbaea36c	-0.00532954
105	0xbb3a01da	-0.0028382451
106	0xbc04b219	-0.008099102
107	0x3c480d61	0.012210221
108	0xb86fc3ec	-5.7164507e-05
109	0xbb8b7cf8	-0.004256841
110	0x3b3d04f7	0.002884207
111	0xbadccf44	-0.0016846438
112	0x3c717aaf	0.014738723
113	0x3c48b01e	0.012249021
114	0x3ba04841	0.004891426
115	0x3c50b08b	0.012737404
116	0xbb0a6185	-0.0021115255
117	0x3c3f1bed	0.011664373
118	0x3c62d104	0.0138437785
119	0xbc631fd7	-0.013862572
120	0x3b4f6075	0.0031643186
121	0xbaf71a8a	-0.0018852514
122	0x3c1be720	0.009515554
123	0xbc3c4124	-0.01149014
124	0x3bbabdd4	0.005698899
125	0x3c7be49e	0.015374331
126	0x3c383716	0.011243602
127	0xbc7b2505	-0.01532865
128	0xbbb00615	-0.005371819
129	0xbb231b0b	-0.0024887945
130	0xbbbc717a	-0.005750832
131	0xbb1eb406	-0.002421619
132	0x3c3eff8d	0.011657608
133	0x3b455de7	0.0030115785
134	0x3c53b0f2	0.012920605
135	0x3bb261ad	0.0054437728
136	0xbbfa0dc8	-0.0076310374
137	0x3c172e1e	0.009227304
138	0xbb3aa1a0	-0.0028477684
139	0xbc0cb665	-0.008588408
140	0xbb445325	-0.0029956785
141	0x3976ffc0	0.00023555662
142	0xbbdfd43c	-0.00683072
143	0x3b659790	0.0035032965
144	0x3b200f14	0.002442305
145	0x3c7f9d0b	0.015601407
146	0xbc158b41	-0.009127439
147	0xbbdc07d2	-0.0067147994
148	0xbb88c978	-0.0041744076
149	0xba04870e	-0.0005055525
150	0x3c701743	0.0146539835
151	0xbb58ee4e	-0.0033101025
152	0x3a8d1e28	0.0010766434
153	0x3c5e77bb	0.013578351
154	0xba655b1b	-0.00087492325
155	0xba8755d6	-0.0010325264
156	0x3c1edb28	0.009695806
157	0x3addf4b2	0.0016933887
158	0xbae83e74	-0.0017718808
159	0xbc3a5c20	-0.011374503
160	0xbb677dbf	-0.0035322753
161	0xbaa889f9	-0.0012858502
162	0xbbe1d2e8	-0.006891597
163	0xbbe68995	-0.007035444
164	0xbb33b98a	-0.0027423822
165	0x3b97f876	0.004637773
166	0x3b6cf080	0.0036154091
167	0x39748610	0.00023319595
168	0x3b58f051	0.0033102224
169	0x3bfd2703	0.007725598
170	0x3b609a63	0.003427171
171	0xbbb74073	-0.0055923997
172	0xbb7e0e2d	-0.0038765774
173	0x3ba56de8	0.0050485022
174	0x3c3f6a02	0.011682989
175	0x3b04e58e	0.0020278427
176	0xbc4011e7	-0.011723018
177	0x3c2d60cf	0.010582163
178	0xbc46133c	-0.012089547
179	0x3bad2ff5	0.005285258
180	0x3ad9d02c	0.0016617826
181	0x3b6b73e7	0.0035927237
182	0xbbebf243	-0.0072005107
183	0x3b14e635	0.0022720222
184	0x3c28f247	0.01031167
185	0x3bee6963	0.0072757467
186	0xbc1fdbd5	-0.009757002
187	0xbbb9b87c	-0.005667744
188	0x3bf063f2	0.007336133
189	0xbbfc1d3e	-0.0076939156
190	0xbbe55ee8	-0.006999839
191	0x3c429434	0.011876155
192	0xbbddf877	-0.006774004
193	0xbbfff694	-0.007811377
194	0x3c285414	0.010273952
195	0xb6e7a4bb	-6.9035136e-06
196	0x3c263b49	0.010145971
197	0xbc78d12c	-0.015186589
198	0xbc1a82b6	-0.009430578
199	0xbb144eb0	-0.002262991
200	0x3bf76ba9	0.007550676
201	0xbb82f964	-0.003997015
202	0xbc6d2741	-0.014474691
203	0x3c206839	0.009790474
204	0x3b6cf2e4	0.0036155516
205	0xbaa50f60	-0.0012593083
206	0x3c4fe639	0.012689167
207	0x3c116805	0.008874898
208	0x3a1fd3f9	0.0006096955
209	0x3c00f826	0.007871663
210	0xbc12e120	-0.008964807
211	0xbc170fad	-0.009220046
212	0x3bb75273	0.0055945455
213	0xbc6529c1	-0.013987006
214	0x3c6b362c	0.014356177
215	0xbb2ad655	-0.0026067693
216	0x3b927bd6	0.004470329
217	0xbc829460	-0.015939891
218	0x3c6a9876	0.014318576
219	0x3c235cd9	0.009970867
220	0x3c4985b8	0.012299947
221	0xbb0e8da2	-0.00217519
222	0x3c57b36d	0.013165337
223	0xbb1eaf97	-0.0024213546
224	0xbc19230a	-0.009346733
225	0xbb86a0d1	-0.0041085263
226	0x3c6cc99d	0.014452365
227	0x3c4cdb8b	0.012503515
228	0x3b760b22	0.0037543257
229	0xbc1ba5f8	-0.009500019
230	0x3c4c759f	0.012479215
231	0xbb19e69e	-0.0023483406
232	0xbc1572fb	-0.009121652
233	0x3c38782f	0.011259123
234	0xbc1751e8	-0.009235837
235	0x3c008c93	0.0078460155
236	0xba32e1fd	-0.0006823836
237	0xbb230605	-0.0024875414
238	0x3bf43c5c	0.0074534845
239	0x3c5ff564	0.0136693455
240	0xbb030b04	-0.001999558
241	0x3bf75572	0.0075480277
242	0x3bd30c54	0.0064406786
243	0xbb570f8d	-0.0032815665
244	0x3c3636a3	0.011121425
245	0xb8261dc3	-3.9605202e-05
246	0x3c3bc688	0.011460908
247	0x39c41c86	0.00037405285
248	0xbc7fc0d1	-0.015609936
249	0xbc63c57a	-0.013902063
250	0xbb15733c	-0.002280428
251	0x3a9ff628	0.0012204098
252	0x3c15a30b	0.009133111
253	0x3c42f21e	0.011898546
254	0xbc51198c	-0.0127624385
255	0x3ad7231e	0.0016413664

linear.bias f4 [2]
0	0xbc0750d8	-0.008259021
1	0x3b25b862	0.0025286903
