skz/linear_probing_sentiment_classifier/training/probe_3.pt (torch, 34264 bytes, 2 tensors)

linear.weight f4 [2, 4096]
0.009962097 -0.011994746 -0.0089820335 0.0067339847 -0.0030839331 -0.0042281975 0.007785134 -0.010322948
-0.0039061585 0.0028902935 -0.00038145998 -0.0031934676 -0.008288505 0.008002779 0.0010708169 -0.01771356
0.0026099277 0.011462208 0.01358787 0.00013975502 -0.0060562496 -0.0061246436 0.013464305 0.00279507
0.010669601 0.0036142769 0.006795752 -0.007482547 0.014709546 -0.0079745045 0.0046390737 -0.008557763
0.002823031 -0.0022808649 -0.010342018 -0.013405936 -0.0075426744 0.0027373864 0.0057679806 0.010125674
0.010800031 -0.017169997 -0.0015908611 -0.0047683846 -0.0023582033 0.014877401 0.005161248 -0.004130706
0.013575326 0.007755203 0.0032850644 0.0017545634 -0.008377037 0.003936436 0.014753872 0.009903461
0.00795558 0.015297229 0.006066413 -0.009805085 -0.00475527 -0.004922129 -0.0065486883 -0.001904972
-0.010353893 -0.010976936 0.0024438694 -0.009238561 -0.00065256696 -0.0007932402 0.0065564835 0.012243735
0.011497325 -0.004537315 0.015424629 0.010121387 0.00029865874 -0.003818736 -0.006795158 -0.0032852816
0.001913323 -0.0056397934 -0.015348449 0.0059218225 0.012975833 -0.00301862 -0.013511332 -0.010607471
0.0006911578 0.015558614 -0.004621808 0.0012101603 -0.012116754 0.009409648 -0.005565889 0.008659726
0.0035840601 0.013692257 0.0042114877 -0.0006954905 -0.013173137 0.0073101968 -0.016188202 0.00061701407
0.010831596 -0.011453621 0.0001973962 0.0090182815 -0.010634435 -0.003455787 -0.00561326 0.006106326
0.014502677 0.015463354 -0.012322105 0.014353637 -0.0033435174 0.0030811168 0.013284692 0.009201052
-0.004110118 -0.0074703926 -0.009825296 0.0120629845 -0.009312859 -0.0012332769 0.014414945 0.0022185112
-0.0055008684 0.014403377 0.010987311 -0.006093744 -0.013709049 -0.010948749 -0.0114917895 -0.0061616646
0.006083945 -0.007840384 -0.009594918 0.004440963 0.006458303 -0.0018622621 0.012171255 -0.00427727
-0.0025006179 0.005892582 0.012661627 -0.0053153182 0.00044989173 -0.01150858 0.0069146757 -0.0140208015
0.0035388058 0.015691493 -0.0029843177 0.009702683 -0.005744245 0.0028357306 0.0043938044 -0.010785938
-0.014409191 0.0023159008 0.00998027 0.017538376 0.005306848 -0.014151757 -0.0028556092 -0.0006915991
0.007764402 0.012185832 -0.0076501262 -0.0027110614 0.0062009217 -0.01267205 -0.010771284 0.006824334
-0.008148472 0.005733181 0.0076273577 -0.014925517 0.0071932576 0.0092202965 -0.0013030764 -0.012056888
-0.011869283 -0.012387439 0.0023164859 0.012387989 -0.005354195 0.0059977383 -0.009374003 0.00023655841
-0.0051092836 -0.008370398 -0.003550421 0.0094268955 -0.0033725605 0.0149708325 -0.0056374534 -0.0036043653
0.010385363 0.009024134 0.01006084 0.01120542 -0.0056175576 0.01453545 -0.005800029 -0.0077207447
0.009269664 -0.0022372701 -0.009226571 -0.0056322925 0.0060556536 0.0028896679 -0.006305566 0.016943788
0.011070969 0.014932928 0.012692001 -0.01500149 -0.008415293 -0.012498099 -0.009173883 0.005056996
-0.010564656 0.013584429 0.008823278 -0.0027382972 0.005008561 0.006152382 0.0010296222 0.0076572397
-0.008996562 0.011757128 -0.007656571 -0.007250944 -0.007682509 -0.012460553 -0.006780902 0.010676933
-0.0075900815 0.0074856156 -0.004262337 -0.009276858 0.012824695 -0.0061509726 -0.013521649 -0.012038825
-0.0006706634 0.005312901 -0.00153558 0.0019821697 0.004715408 -0.013019806 -0.014389138 -0.01255437
00000000: 1038 233c 9c85 44bc 6129 13bc c2a8 dc3b
00000010: d01b 4abb b18c 8abb 701a ff3b 9521 29bc
00000020: 77fe 7fbb 146b 3d3b b1fe c7b9 7f49 51bb
00000030: 82cc 07bc 171e 033c a75a 8c3a 071c 91bc
00000040: 520b 2b3b fccb 3b3c a89f 5e3c 348b 1239
00000050: 8173 c6bb 3cb1 c8bb 6399 5c3c 7e2d 373b
00000060: 8dcf 2e3c 81dd 6c3b e6ae de3b 2730 f5bb
00000070: 4f00 713c 7fa7 02bc 5f03 983b dc35 0cbc
00000080: 9a02 393b 907a 15bb 9171 29bc 92a4 5bbc
00000090: 8a28 f7bb b965 333b 5401 bd3b 28e6 253c
000000a0: 9df2 303c 18a8 8cbc 7184 d0ba 1c40 9cbb
000000b0: 168c 1abb 58c0 733c b01f a93b e05a 87bb
000000c0: 0b6b 5e3c 5c1f fe3b 3c4a 573b 61f9 e53a
000000d0: d73f 09bc 38fd 803b 39ba 713c 2042 223c
000000e0: 1f58 023c 3ba1 7a3c c3c8 c63b 82a5 20bc
000000f0: 19d2 9bbb d049 a1bb 6196 d6bb 41b0 f9ba
00000100: 60a3 29bc 9bd8 33bc 5329 203b 555d 17bc
00000110: 0711 2bba 73f1 4fba c5d7 d63b f299 483c
00000120: 475f 3c3c c2ad 94bb 95b7 7c3c 2dd4 253c
00000130: 4c95 9c39 c243 7abb eba9 debb e14d 57bb
00000140: 77c8 fa3a 04ce b8bb 1078 7bbc d90b c23b
00000150: 9798 543c 0ad4 45bb a25e 5dbc f5ca 2dbc
00000160: d12e 353a 8fe9 7e3c 8972 97bb 3e9e 9e3a
00000170: 5a85 46bc ed2a 1a3c 1062 b6bb 86e1 0d3c
00000180: 8de2 6a3b 7d55 603c 8500 8a3b 9451 36ba
00000190: 24d4 57bc 608a ef3b 1f9d 84bc 1dbf 213a
000001a0: 0277 313c f8a7 3bbc 24fc 4e39 6ac1 133c
000001b0: 0e3c 2ebc 7c7a 62bb 70ef b7bb 9317 c83b
000001c0: a39c 6d3c 025a 7d3c a7e2 49bc 842b 6b3c
000001d0: ea1e 5bbb 90ec 493b 09a8 593c 02c0 163c
000001e0: 2bae 86bb 32ca f4bb 47fa 20bc d3a3 453c
000001f0: f694 18bc e8a5 a1ba a92c 6c3c 7164 113b
00000200: a140 b4bb 24fc 6b3c 1f04 343c 08ae c7bb
00000210: eb9b 60bc 6262 33bc 0f48 3cbc cae7 c9bb
00000220: d45b c73b f474 00bc 0134 1dbc 7f85 913b
00000230: 2ca0 d33b 2617 f4ba f269 473c 5728 8cbb
00000240: 68e1 23bb 8f16 c13b b672 4f3c 1f2c aebb
00000250: 72df eb39 7c8e 3cbc 8194 e23b 81b7 65bc
00000260: 4feb 673b 728b 803c 8b94 43bb 01f8 1e3c
00000270: 383a bcbb aad7 393b e7f9 8f3b 81b7 30bc
00000280: 8714 6cbc 5ec6 173b 4984 233c a4ac 8f3c
00000290: 11e5 ad3b c5dc 67bc 2c25 3bbb 6e4c 35ba
000002a0: 866c fe3b 15a7 473c e9ad fabb 10ac 31bb
000002b0: 1a31 cb3b 6e9e 4fbc 0a7a 30bc aa9e df3b
000002c0: 2b81 05bc 68dd bb3b eaee f93b 288a 74bc
000002d0: 6bb5 eb3b ba10 173c fdcb aaba 418a 45bc
000002e0: 6277 42bc aff4 4abc 2fd0 173b fef6 4a3c
000002f0: 3e72 afbb ad88 c43b 6b95 19bc aa0c 7839
00000300: c76b a7bb fe23 09bc 2eae 68bb 4473 1a3c
00000310: 2d06 5dbb 3948 753c 63ba b8bb 3737 6cbb
00000320: 5f27 2a3c f6d9 133c 39d6 243c f096 373c
00000330: 7d13 b8bb 1926 6e3c 2b0e bebb 4dfe fcbb
00000340: cadf 173c 2a9f 12bb 0b2b 17bc 188f b8bb
00000350: 816e c63b 9560 3d3b ec9e cebb b3cd 8a3c
00000360: 0263 353c 3da9 743c 1cf2 4f3c cfc8 75bc
00000370: 4ce0 09bc d4c4 4cbc 0e4e 16bc 28b5 a53b
00000380: 6117 2dbc 3a91 5e3c 838f 103c 0175 33bb
00000390: db1e a43b ec99 c93b 63f4 863a 95e9 fa3b
000003a0: 5166 13bc f8a0 403c f9e3 fabb 5499 edbb
000003b0: 8ebd fbbb 5927 4cbc 5432 debb 4eee 2e3c
000003c0: 38b6 f8bb e549 f53b 13ab 8bbb f6fd 17bc
000003d0: ab1e 523c 198e c9bb e889 5dbc 7e3e 45bc
000003e0: 75cf 2fba d817 ae3b 8445 c9ba 4ae7 013b
000003f0: b683 9a3b 0651 55bc 6bc0 6bbc d8b0 4dbc

linear.bias f4 [2]
0.008635688 -0.010105771
00000000: b37c 0d3c ad92 25bc
