skz/linear_probing_sentiment_classifier/training/probe_1.pt (torch, 34264 bytes, 2 tensors)

linear.weight f4 [2, 4096]
00000000: a4c8 40bc d260 203c 7ecd 063a 5725 bf3b
00000010: d6e7 54bc 3457 73b9 9baa cdbb 0689 013d
00000020: 0721 01bc fec1 3abc 16b2 243c b0f1 a8bc
00000030: 573b 6b3c 7760 8f3b abb2 953b 482c 39bc
00000040: dfcb ddbb 8f31 90ba 8c07 a33c 2e4f 04bb
00000050: 7fbd 6b3b 2462 0ebc 3270 033c 767f 9d3c
00000060: 3f1f 7cbc 6ec8 1abb 9bf2 4c3c 6aee 1c3c
00000070: f021 5dbc 24ec 213c 4d02 42bc 0950 7e3c
00000080: e237 68bb f6f7 e53a c5b4 033b 627d 723c
00000090: 042c 963a 7a17 833c 16ab 683c bd85 86bc
000000a0: a016 1fbc e61f 2abb 4e6b 9038 99fc 6e3b
000000b0: e7c7 863d 7e10 f2bb b5b9 5abb 2351 92bb
000000c0: aa2a df3b 1d4a 41bc dc3c 11bc 6de5 f83a
000000d0: dfb5 03bc 2dde fabb bf24 4b3b b6d1 ab3b
000000e0: a7d7 23bc 2ed8 63ba c3d9 05bc 526a b13b
000000f0: 6cf7 433c 0d9b 52bc fef2 f0bb 8641 36bc
00000100: af4c e8bb f3ff a0bc 2064 a13a 9be1 163b
00000110: 50d3 feba 248b 8a3b 64e2 483c 242f 67ba
00000120: a1be 53bc d471 b43c 472c 32bc 13be 733c
00000130: d445 95bc c541 123c 15e7 2abc 88d0 08bd
00000140: 7ce9 d73a e21d 653c 70ed 493c 8645 12bb
00000150: 05b7 b4bb 9ccf a53b 4d65 933b 3178 b13c
00000160: 1766 253c a38c 46ba 8f65 94bb 3ee3 04bc
00000170: 3af8 433b 2f38 6d3c e840 183c de7b 02bc
00000180: 0f37 ce3b 4adb 07bc a89a 823b 3335 88bc
00000190: 14a9 563c 52da afba 8e89 2dbc a9b1 183c
000001a0: a9ce 8dbc e31a 0bbc 1fdd 613b 87da a5b8
000001b0: a53f d5bb aa6b b63a 9998 51bc bb83 5fbc
000001c0: 7d4c a0bc d925 fc3b a086 2e3c 08ec 69bc
000001d0: 7097 94bc 6acf caba 2ad0 533c 5361 9e3a
000001e0: 9658 853c 8435 013c 7dd7 84bb be3d 503b
000001f0: 689a 42bc 8888 a93b d422 6c3b 673e 5f3d
00000200: b524 8f3c 9a5c 253c 7753 2c3d 962b 2a3a
00000210: 0173 3a3c 9200 1f3c 6a35 57bc 44e6 7a3b
00000220: b547 40bb 0eb4 6e3c b562 29bc b9c7 213c
00000230: c79c f23c a660 913c 8b28 e13b 5bcc f0ba
00000240: 5efa 3c3c c13a 213c 94cd 103c 1349 2d3c
00000250: b2fa 1dbc ae75 113c 4868 be3a 9ebb 303c
00000260: 4db9 3d3b 4a30 04bb 9ea9 37bc 99fa 5dbc
00000270: becc 763c baba b83a 0250 f03b 9d28 623c
00000280: d117 5ebc 6e76 983a 15f5 4cbc e010 163d
00000290: fc57 47bc 57f6 e23a 62e3 09bc 3537 5bbb
000002a0: 812f e03a bd78 843c 8c2b 243c 9fb4 18bb
000002b0: 18fb 87bd 5781 fe3b 52b0 003d c63d 0d3c
000002c0: 6fe2 903c 13fd 123c 4a53 603c 19f5 d4bc
000002d0: 1ebc 353c a5c6 4a3c cc9e 5f3c fbae 44bc
000002e0: cd90 5e3c c619 b83c 759e 71bc e882 4ebc
000002f0: cd21 703c 2360 2ebb 7432 34bc de43 8cba
00000300: 9889 8e3c 3f9f fd3b ff87 b2bb af05 1ebc
00000310: b07b 223c e780 4ebc 0f8b 06bc 0c78 1abc
00000320: 23ef 0cbc b757 b2bc f25f 1ebc 36f9 a7bc
00000330: 0270 ccba 7db9 00bc 885b 0fbb ef4c 493c
00000340: edfe 253b d081 4cbc 8d99 b83a 804d 0e3c
00000350: 7825 513c 2a7d f03b 2619 acba 4d0a 5d3c
00000360: 9539 7fbb a214 2c3c 86ae 04bd a598 f5b9
00000370: dcab 2abc 0043 5aba c8b0 57bc 3799 9fbb
00000380: 84fa 93bc aabc 973a 2953 aabc c5e5 d7bb
00000390: 6bad b5b9 776d 2a3c 883c acbb 1ff8 09bc
000003a0: 4b47 2b3a a4fd 3a3c 4e03 173c 6506 793c
000003b0: 75db 063c fdd0 2cbc 4552 70bb f96e 60bc
000003c0: d6e5 fa3b 4de5 51bc 6fa7 753b a884 5739
000003d0: d152 913c c43c f43b 7a91 3d3c f8b5 90bc
000003e0: 1087 86bb b2c4 463c 13d7 81bb 9944 b1bb
000003f0: 6fbb 323c 871f c6ba 945f baba 6bc5 9a3a
-0.011766586 0.009788709 0.0005142315 0.0058333087 -0.012994727 -0.00023206772 -0.0062764413 0.031624816
-0.0078814095 -0.01139879 0.010052225 -0.020623058 0.014357409 0.004375513 0.004568418 -0.011302061
-0.006768688 -0.0011001098 0.01990106 -0.0020188796 0.0035971103 -0.008690391 0.008022355 0.019225817
-0.015388309 -0.0023618 0.0125090135 0.009578327 -0.013496861 0.0098829605 -0.011841369 0.015522012
-0.00354337 0.0017545212 0.002009676 0.014800401 0.001145721 0.016002405 0.014200946 -0.016421193
-0.009709984 -0.0025958954 6.886442e-05 0.0036466478 0.06581097 -0.00738722 -0.003337485 -0.0044652387
0.006810506 -0.011797455 -0.008864608 0.0018989273 -0.008038967 -0.00765588 0.0030997244 0.0052435054
-0.010000146 -0.0008691576 -0.008169594 0.0054142857 0.011960845 -0.01285435 -0.0073531857 -0.01112402
-0.0070892195 -0.019653296 0.0012313165 0.0023022655 -0.0019441638 0.0042280126 0.012261007 -0.0008818975
-0.012923867 0.022026934 -0.010874814 0.01487686 -0.018221773 0.0089268135 -0.010431071 -0.033401996
0.0016472782 0.013984175 0.012324676 -0.0022319271 -0.0055149817 0.0050601494 0.00449816 0.021663757
0.010095141 -0.0007574057 -0.0045287083 -0.008110819 0.0029902593 0.014478727 0.009292819 -0.007964103
0.0062931846 -0.008292029 0.0039857216 -0.01662693 0.013101835 -0.0013416505 -0.010591878 0.009319701
-0.017310457 -0.008490297 0.0034464074 -7.908517e-05 -0.006507831 0.0013917584 -0.01279273 -0.013642247
-0.019567722 0.0076949415 0.010652214 -0.014277466 -0.018138617 -0.0015473191 0.012928048 0.0012083448
0.016277593 0.007886294 -0.0040540085 0.0031775082 -0.011877634 0.0051737465 0.0036031501 0.05450287
0.017473558 0.010092879 0.042071786 0.000649148 0.011379958 0.009704726 -0.0131352935 0.0038284222
-0.0029339616 0.014569296 -0.010338475 0.009874278 0.029615773 0.01774628 0.006871288 -0.001837145
0.011534302 0.009840668 0.008838076 0.010576504 -0.00964229 0.008878155 0.0014526928 0.010786919
0.002894956 -0.0020170384 -0.0112098735 -0.013548517 0.015063463 0.0014093735 0.0073337564 0.013803628
-0.013555483 0.0011631974 -0.012509604 0.036637187 -0.012166973 0.0017315847 -0.008416029 -0.0033449654
0.0017104001 0.016170854 0.010020148 -0.0023301018 -0.06639689 0.0077668834 0.031418152 0.008620685
0.017686097 0.00897147 0.013691733 -0.025995778 0.011092214 0.012376462 0.0136487 -0.012004609
0.013584328 0.022473227 -0.014747252 -0.012604453 0.014656496 -0.0026607595 -0.010998357 -0.0010701378
0.017399594 0.007739931 -0.005448341 -0.00964491 0.009917185 -0.012603975 -0.008211865 -0.0094280355
-0.0086019365 -0.021770341 -0.00966643 -0.020504575 -0.0015597346 -0.007856724 -0.0021874625 0.012286409
0.002532895 -0.012482122 0.0014083848 0.00868547 0.012765281 0.0073391395 -0.0013130053 0.013491225
-0.0038944234 0.010502966 -0.032393 -0.0004684377 -0.010416951 -0.0008326024 -0.0131647065 -0.0048705596
-0.018063791 0.0011576612 -0.020791607 -0.00658867 -0.00034652217 0.010402075 -0.0052562393 -0.008420973
0.0006533756 0.011413012 0.0092170965 0.0151992785 0.008231034 -0.010547874 -0.003667013 -0.013698333
0.007656793 -0.012811017 0.0037483831 0.00020553416 0.017739685 0.007453533 0.011570329 -0.017664894
-0.004105456 0.012131857 -0.0039624064 -0.005409789 0.010908945 -0.0015115597 -0.0014219158 0.0011808103

linear.bias f4 [2]
00000000: 2739 7ebc 8fc8 6ebc
-0.015516556 -0.014574184
