skz/linear_probing_sentiment_classifier/training/probe_0.pt (torch, 34264 bytes, 2 tensors)

linear.weight f4 [2, 4096]
0	0xbc7b5983	-0.0153411655
1	0xbc4fbd8b	-0.012679468
2	0xbad6af90	-0.0016379226
3	0x3b8c743a	0.004286316
4	0xbc236d20	-0.009974748
5	0xb9050d60	-0.00012688851
6	0x3ada758d	0.0016667113
7	0x387b6a69	5.9942166e-05
8	0x3d2bdca2	0.04195846
9	0x3c7842fa	0.015152687
10	0xbc8ba9af	-0.017048685
11	0xbc36da27	-0.01116041
12	0xbc9625ae	-0.018328514
13	0x3c1c23b2	0.009529995
14	0xbbf2d7cf	-0.0074109803
15	0x3c417869	0.011808493
16	0x3c37ac69	0.011210539
17	0x3c21fdd6	0.009887179
18	0x3d9c48ee	0.07631098
19	0xbb915b11	-0.004435905
20	0xbc364135	-0.011123945
21	0x3bc757f8	0.0060834847
22	0x3b3f524f	0.0029193347
23	0xbbd99971	-0.006640606
24	0xbaa512c8	-0.0012594098
25	0xbc4ccd83	-0.01250017
26	0x3c25b661	0.010114283
27	0x3b0bea35	0.0021349315
28	0xbb5c5a32	-0.0033623097
29	0xbc7e9f91	-0.015540973
30	0x3c3514dc	0.011052337
31	0x3c3b2163	0.011421534
32	0xbb1b01ca	-0.002365219
33	0xb9832b1f	-0.00025018395
34	0xbc56b300	-0.0131042
35	0x3c812c27	0.015768124
36	0xbc3d3751	-0.011548833
37	0x3ce7e871	0.028309079
38	0x3accf7f9	0.0015637866
39	0xbd612ef6	-0.054976426
40	0xbb59dae3	-0.003324204
41	0xbbcac74d	-0.0061883093
42	0x3c37403a	0.011184746
43	0xbbbb27f0	-0.005711548
44	0xbc54a746	-0.012979334
45	0xbb8bebf1	-0.0042700698
46	0x3a13bd5b	0.0005635821
47	0xbbff8e6f	-0.007798962
48	0xbbb7ce04	-0.005609276
49	0x3c04c9d7	0.008104763
50	0x3c3cbca8	0.0115195885
51	0x3c0dcd91	0.008654968
52	0x3c48f03e	0.012264309
53	0xbc788a4d	-0.015169692
54	0x3c2e6eac	0.010646503
55	0x3cc5d9db	0.024151733
56	0x3bca5580	0.006174743
57	0x3bee72df	0.0072768773
58	0x3bf433a1	0.0074524437
59	0x3b975897	0.004618715
60	0xbc17a695	-0.009256025
61	0xbc0d1145	-0.008610074
62	0x3b82f343	0.003996284
63	0xbc3ffa81	-0.01171744
64	0x3ba59269	0.005052854
65	0x3b4c8369	0.0031206256
66	0xbc8f0444	-0.017458089
67	0x3b85674f	0.0040711532
68	0x3bc5767d	0.006026088
69	0xbc05d2ee	-0.008167965
70	0xbc3cc0b6	-0.011520555
71	0x3c622c99	0.013804578
72	0xbc6dc750	-0.014512852
73	0x3bb5003c	0.0055237096
74	0x3a3e7233	0.0007264942
75	0x3cd744ac	0.026277862
76	0xbbd883dc	-0.0066075157
77	0xbc1990de	-0.009372918
78	0x3c6e9afb	0.014563317
79	0xbc056eec	-0.008144122
80	0xbadbc288	-0.0016766349
81	0xbcb95072	-0.022621367
82	0x3c0326c1	0.008004845
83	0xbc69f0f3	-0.014278638
84	0x3bf539fb	0.0074837185
85	0xbd065409	-0.032794986
86	0xbba8a0bc	-0.005146114
87	0x3b1dde26	0.002408871
88	0x3caa5fac	0.020797573
89	0x3c28f5c5	0.010312502
90	0xbb939b79	-0.004504618
91	0x3c1e3bba	0.009657795
92	0x3b9cc4d7	0.0047842073
93	0xbc29642e	-0.010338826
94	0x3c2e1578	0.010625236
95	0xbc2583b3	-0.0101022
96	0xbb985c65	-0.004649686
97	0xbaef0567	-0.0018235863
98	0x3c539172	0.012913095
99	0x3be9a3af	0.0071301083
100	0xbbf261c8	-0.0073969103
101	0xbc2e1bcf	-0.010626747
102	0x3c65c545	0.0140240835
103	0x3b15a66d	0.0022834793
104	0x3c61efc5	0.013790076
105	0xbc88ee51	-0.0167152
106	0x3ae014ee	0.0017096081
107	0x3c0c1ac1	0.0085513005
108	0xb9492812	-0.00019183781
109	0x39041c5b	0.00012599064
110	0x3b13e22f	0.0022565236
111	0xbba7024c	-0.0050967094
112	0xbb552ccf	-0.0032527929
113	0xbc8a8a6d	-0.01691171
114	0xbc06251c	-0.0081875585
115	0xbc33f42f	-0.010983511
116	0x38da2594	0.000104020495
117	0xbc2ac76a	-0.010423521
118	0x3cb497a9	0.022044973
119	0x3bdbffb0	0.00671383
120	0xbbe3abe1	-0.00694798
121	0x3b099787	0.0020994858
122	0xbc21bd36	-0.009871772
123	0xbb8cd5a2	-0.004297928
124	0x3bc5170d	0.0060147108
125	0x3b349137	0.0027552375
126	0x3c6c8371	0.014435635
127	0xbc8cc2b1	-0.01718268
128	0x3b9252fd	0.0044654594
129	0xbbb2e5f6	-0.0054595424
130	0x3c4b8f6d	0.012424332
131	0xbb6fb3f3	-0.0036575764
132	0x3b6d72ef	0.0036231836
133	0xbc76736b	-0.015042166
134	0x3c33cd3f	0.010974227
135	0xbc6656f3	-0.014058816
136	0x3c823951	0.015896471
137	0x3c49f787	0.0123270815
138	0xbbad5d4d	-0.0052906633
139	0xbcbe6517	-0.023241563
140	0xbb3f3a01	-0.002917886
141	0xbc4c1cd0	-0.012458041
142	0x3a205f22	0.00061176915
143	0xbc81876d	-0.015811646
144	0xbb5ecc48	-0.0033996273
145	0x3c78c8b3	0.015184569
146	0x3c4f659b	0.012658502
147	0xbb8456cc	-0.0040386673
148	0xbc136587	-0.008996374
149	0x3c4eaf97	0.012615106
150	0x3c0dd19d	0.008655933
151	0xbaeb4f99	-0.0017952799
152	0x3bfb8389	0.0076755923
153	0x3c095e50	0.008384302
154	0x3bc723f5	0.0060772845
155	0x3c5c299c	0.013437655
156	0xbc5c15f9	-0.013432973
157	0xb9b27839	-0.00034040379
158	0xbbb625c2	-0.0055587003
159	0xbc248f21	-0.01004389
160	0x3a8cf887	0.0010755219
161	0xbc52a051	-0.012855605
162	0xbbd74f51	-0.0065707345
163	0x3c855f09	0.016280668
164	0x3c261b87	0.010138399
165	0xbc8d2246	-0.017228257
166	0xbcc2ecaa	-0.02379449
167	0xbb315432	-0.002705824
168	0x3ca2d0dd	0.019874984
169	0x3aade2d1	0.0013266449
170	0x3be98c2b	0.007127305
171	0x3c2d2aba	0.010569269
172	0x3a53dc58	0.0008081845
173	0xbc83e2aa	-0.016099293
174	0x3c6240dd	0.01380941
175	0x3b383766	0.0028109192
176	0x3af34de9	0.0018562648
177	0x3c9aec49	0.018911498
178	0xbc6a8ef0	-0.0143163055
179	0x3c3c4db6	0.011493137
180	0x3c0d7944	0.008634869
181	0xbbef2c26	-0.007298964
182	0x3a082df4	0.0005194836
183	0x3c15b226	0.009136712
184	0x3a59648b	0.0008292875
185	0xbb09bc2a	-0.0021016696
186	0xbb7301c7	-0.0037079917
187	0x3aa95f5d	0.0012922097
188	0x3bc4612d	0.0059930296
189	0x3b6d6d74	0.003622857
190	0xbbb8fab4	-0.0056451205
191	0x3cc2f781	0.02379966
192	0x3c8d0ecd	0.017218972
193	0xbc20cc1c	-0.0098142885
194	0xbc1fd09e	-0.009754328
195	0xbb73f8e9	-0.003722722
196	0x3cc4f2a0	0.024041474
197	0xbbede0b9	-0.007259455
198	0xbbeb3d7c	-0.0071789604
199	0xbb8c4694	-0.0042808745
200	0x3c68be89	0.014205583
201	0x3b87e4d4	0.0041471515
202	0xbafe959d	-0.001942325
203	0x3b276ec7	0.0025548206
204	0x3a59cef3	0.0008308731
205	0x3c467913	0.012113827
206	0xbc342ff8	-0.010997765
207	0xbc07e27a	-0.008293742
208	0x3916bb82	0.00014374967
209	0x3c061e58	0.008185945
210	0x3c53e149	0.01293213
211	0xba43b0c0	-0.00074649975
212	0x3b1aa567	0.0023597123
213	0x3c2038cd	0.009779167
214	0xbc03c68f	-0.0080429455
215	0xbc039d45	-0.008033101
216	0xbc01fcbb	-0.007933791
217	0xbbe87001	-0.00709343
218	0xbc3e93f6	-0.011631956
219	0xbc2cd860	-0.010549635
220	0xbc151769	-0.00909982
221	0xbba12f75	-0.0049189874
222	0x3cf366e9	0.029712157
223	0xbc8dd828	-0.017314985
224	0xbbed927b	-0.007250128
225	0xbc3b7264	-0.011440847
226	0xbab99928	-0.0014160024
227	0xbcf358a3	-0.029705351
228	0xbbfbe190	-0.0076868013
229	0xba62feda	-0.00086591917
230	0x3c4314a4	0.011906777
231	0xbd66f0fc	-0.056382164
232	0xbcaee461	-0.021349134
233	0x3bbd05b2	0.005768501
234	0x3986382f	0.00025600332
235	0xbb11751f	-0.0022195054
236	0x3b8b0f84	0.004243793
237	0x3bb5a94d	0.005543864
238	0xbc73bba4	-0.01487628
239	0x3b60e85a	0.003431818
240	0xbafc9f82	-0.0019273611
241	0x3c5844d7	0.013200006
242	0xbc83299d	-0.016011054
243	0x3b998e8e	0.0046861833
244	0x3c7e6ab7	0.0155283725
245	0x3b2de7e1	0.0026535916
246	0xbbeb6d77	-0.00718468
247	0xbc0d0398	-0.008606814
248	0xbc7a899a	-0.015291596
249	0x3c7be1c6	0.015373653
250	0xbb23aef8	-0.0024976116
251	0x3c572041	0.0131302485
252	0x3c50e116	0.012748977
253	0xbbf8bf16	-0.0075911386
254	0x3bb10284	0.005401911
255	0x3c26f6be	0.010190664

linear.bias f4 [2]
0	0x3c34d3b7	0.011036805
1	0xbc291732	-0.010320472
