skz/linear_probing_sentiment_classifier/training/probe_2.pt (torch, 34264 bytes, 2 tensors)

linear.weight f4 [2, 4096]
0.008104441 0.011631758 0.015456609 -0.014808976 -0.009804363 -0.0079849 -0.0050513116 0.007692876
-0.009365104 0.005070753 0.008360987 0.005650923 -0.0028071527 0.0044032433 0.011941448 -0.006294618
-0.032428715 -0.0026813254 0.007577696 0.0027982462 0.00063721964 -1.7545024e-05 0.0057072868 0.003960968
0.018566553 0.011601971 -0.0033561653 -0.009879166 0.0077100517 -0.01580451 0.00080548855 0.0025812404
-0.007096062 0.027359834 -0.010005255 0.0015319524 0.007820368 0.017309142 -0.0031270979 0.0056399675
0.007966696 0.0022072245 0.004783851 -0.009653151 0.009656353 0.021687388 0.011379332 -0.0012425889
-0.014598683 0.015944272 -0.0067359996 0.0088233715 -0.0034611167 -0.010960156 0.0023749457 0.014909619
-0.012333307 0.0006000434 -0.0075619426 0.0027239227 0.009014224 0.012778485 0.016914243 -0.011536751
-0.007213576 -0.0050444705 -0.010507357 -0.006256641 0.003649375 -0.006754251 0.0036751407 -0.012371657
0.009672701 -0.0096868705 -0.0010715594 -0.013677655 0.012408873 -0.0069585475 -0.0018800165 -0.006007697
0.011291393 0.0117319655 0.003529006 0.020192182 0.001196269 -0.0039593503 0.01277298 -0.014397555
0.002168868 0.009058682 -0.0012115787 -0.0043390216 0.012528434 -0.0016028933 0.008481749 -0.012087566
0.013070564 -0.011550374 0.014745711 -0.0054317447 -0.0011510358 0.0043445365 -0.014788489 -0.0060776807
-0.011330517 0.0065549635 -0.016565451 0.008372982 0.00786035 -0.008482785 0.0038120446 -0.0062988386
0.005473938 -0.01988364 0.0072085243 -0.012246531 0.011640435 0.0036641944 -0.007960124 -0.008780932
-0.0038806875 -0.0062595652 0.010679765 0.014820908 -0.00579686 -0.0041946615 -0.038680162 0.026037585
-0.003310914 -0.013642559 0.007568562 0.0042763557 -0.03239484 -0.0025637276 -0.008268826 0.0056604184
-0.0033361588 -0.0169671 -0.0041986965 0.0022264274 -0.0064686686 0.00855387 0.0003349272 -0.00915276
0.024370454 0.007181701 0.012669124 -0.005234854 -0.0035061499 0.011425737 -0.0062477174 0.008205311
-0.010695063 0.012782358 -0.003595788 -0.007140135 0.012661514 0.011753799 0.011618506 0.0091594085
0.009878933 0.009926207 0.00066496315 0.00032723843 0.0058728405 -0.011721265 -0.004485896 0.012158572
-0.00079414505 -0.012031668 -0.014077196 0.020542271 -0.013849056 -0.007762685 -0.0074523417 0.018895224
-0.011547111 -0.0086467555 -0.0035556157 -0.0076670754 -0.010757884 -0.00450233 0.009570813 0.0031587402
-0.0029949478 -0.0018231706 -0.00015662223 0.028783169 -0.014435763 -0.0051452816 0.0013362882 -0.0045572687
0.067522146 0.0057682395 0.012034387 -0.01689778 0.0019930268 -0.010202945 -0.012081417 -0.009344512
-0.007865599 0.006493232 -0.0045348 -0.0023042571 0.00021132176 -0.032836616 -0.0040711686 0.015438285
0.004985564 0.0027938767 -0.010591065 0.006393321 -0.015853124 0.004105665 0.014256098 -0.009988924
-0.0065326313 -0.012963427 0.002206845 0.013725098 -0.013456841 -0.012112425 0.013056424 -0.008635931
-0.011549791 -0.019919824 -0.0031122246 -0.014072302 -0.06589146 0.00029356417 -7.509239e-05 -0.002197013
0.01039641 -0.008690849 0.007399636 0.0016374983 -0.012041729 -0.0031005612 -0.014872261 0.0054552453
0.0063418467 -0.015378761 0.0022515662 -0.015766969 0.014667933 -0.011380564 -0.007945881 0.00342979
0.013784854 -0.005108242 0.004755697 0.0032365748 0.015915047 0.0010483861 0.009289552 -0.005953219
00000000: 7dc8 043c 2193 3e3c b83d 7d3c 59a1 72bc
00000010: 7ba2 20bc 19d3 02bc 7985 a5bb 8514 fc3b
00000020: 1870 19bc 8f28 a63b 85fc 083c 612b b93b
00000030: 35f8 37bb 1549 903b 10a6 433c 1543 cebb
00000040: f9d3 04bd 2db9 2fbb 524e f83b c862 373b
00000050: 160b 273a a72d 93b7 3104 bb3b 02cb 813b
00000060: e218 983c 3216 3e3c 1cf3 5bbb 3adc 21bc
00000070: 9aa4 fc3b 7678 81bc 6c27 533a 072a 293b
00000080: 1586 e8bb bb21 e03c 15ed 23bc cbcb c83a
00000090: 0021 003c e7cb 8d3c ffef 4cbb 7acf b83b
000000a0: bf86 023c 15a7 103b dac1 9c3b 4028 1ebc
000000b0: ae35 1e3c c0a9 b13c 6170 3a3c 5dde a2ba
000000c0: 512f 6fbc 909d 823c a9b9 dcbb e78f 103c
000000d0: e7d3 62bb 3a92 33bc faa4 1b3b 7a47 743c
000000e0: a411 4abc 3b4c 1d3a 2cca f7bb d783 323b
000000f0: 65b0 133c da5c 513c bd8f 8a3c a404 3dbc
00000100: dd5f ecbb 164c a5bb 0d27 2cbc 8204 cdbb
00000110: 5a2a 6f3b c452 ddbb a1da 703b 7eb2 4abc
00000120: 407a 1e3c aeb5 1ebc 9173 8cba 3e18 60bc
00000130: 964e 4b3c 8704 e4bb e36a f6ba 37dc c4bb
00000140: 89ff 383c 6e37 403c e546 673b 136a a53c
00000150: 20cc 9c3a 70bd 81bb c345 513c b9e3 6bbc
00000160: 9123 0e3b de6a 143c d6cd 9eba 5a2e 8ebb
00000170: 1044 4d3c 2d18 d2ba 09f7 0a3c ed0a 46bc
00000180: eb25 563c c83d 3dbc ff97 713c c7fc b1bb
00000190: 5ade 96ba 9d5c 8e3b 6b4b 72bc 4827 c7bb
000001a0: a2a3 39bc 05cb d63b 45b4 87bc d52e 093c
000001b0: b3c8 003c 61fb 0abc 7fd3 793b 7d66 cebb
000001c0: b85e b33b 04e3 a2bc 7c35 ec3b ada5 48bc
000001d0: 86b7 3e3c fb22 703b 2e6b 02bc e6dd 0fbc
000001e0: 2253 7ebb 0a1d cdbb 2efa 2e3c 65d3 723c
000001f0: 96f3 bdbb 5f73 89bb 176f 1ebd c64c d53c
00000200: ebfb 58bb 0a85 5fbc b301 f83b ac20 8c3b
00000210: 74b0 04bd 3604 28bb f879 07bc 087b b93b
00000220: 75a3 5abb 96fe 8abc 3895 89bb 41e9 113b
00000230: 20f7 d3bb 8825 0c3c 2b99 af39 75f5 15bc
00000240: 8ca4 c73c 7954 eb3b 2892 4f3c 2389 abbb
00000250: 6fc7 65bb 0433 3b3c a7b9 ccbb 926f 063c
00000260: 583a 2fbc 186d 513c 50a7 6bbb cbf7 e9bb
00000270: 3d72 4f3c 0293 403c 8c5b 3e3c 5811 163c
00000280: 40db 213c 88a1 223c ec50 2e3a 3391 ab39
00000290: f570 c03b 8c0a 40bc 6cfe 92bb bf34 473c
000002a0: 2c2e 50ba 7920 45bc 0aa4 66bc 4448 a83c
000002b0: 27e7 62bc 1f5e febb c632 f4bb 28ca 9a3c
000002c0: 1830 3dbc 1fab 0dbc 5505 69bb 173c fbbb
000002d0: d641 30bc 4888 93bb e6ce 1c3c de02 4f3b
000002e0: e346 44bb 74f7 eeba f63a 24b9 aeca eb3c
000002f0: fa83 6cbc c099 a8bb 6426 af3a 2455 95bb
00000300: 0d49 8a3d 8003 bd3b e12b 453c 376d 8abc
00000310: 719d 023b 412a 27bc 23f1 45bc b919 19bc
00000320: b7de 00bc 2ec5 d43b a998 94bb 0503 17bb
00000330: 4196 5d39 b07f 06bd 7067 85bb dcf0 7c3c
00000340: f15d a33b 7919 373b 2586 2dbc 107f d13b
00000350: 69de 81bc d088 863b 6992 693c 95a8 23bc
00000360: af0f d6bb 8e64 54bc b7a0 103b 3cdf 603c
00000370: 157a 5cbc 3173 46bc 9dea 553c b87d 0dbc
00000380: 563b 3dbc e62e a3bc 77f6 4bbb 838f 66bc
00000390: 1af2 86bd 84e9 9939 eb7a 9db8 c3fb 0fbb
000003a0: b455 2a3c 1064 0ebc a578 f23b 53a1 d63a
000003b0: ac4a 45bc c932 4bbb c9aa 73bc eac1 b23b
000003c0: 44cf cf3b 33f7 7bbc 038f 133b bb29 81bc
000003d0: c551 703c 8c75 3abc 712f 02bc 54c6 603b
000003e0: ded9 613c 0a63 a7bb aed5 9b3b b71c 543b
000003f0: 4660 823c 006a 893a 3533 183c 3813 c3bb

linear.bias f4 [2]
0.0010698013 -0.012767691
00000000: 9338 8c3a 942f 51bc
