skz/linear_probing_sentiment_classifier/training/probe_2.pt (torch, 34264 bytes, 2 tensors)

linear.weight f4 [2, 4096]
0	0x3c129115	0.008945723
1	0x3c785261	0.015156359
2	0x3a126e8e	0.0005585932
3	0x3aa75fc3	0.0012769628
4	0xbb80bbf1	-0.0039286544
5	0x3c7e6740	0.015527546
6	0xbc39f2dd	-0.011349407
7	0x39e9b576	0.00044576422
8	0x3bb3c94b	0.0054866425
9	0xbbc683dc	-0.0060581993
10	0x3c4468bc	0.011987861
11	0xbb24758c	-0.0025094477
12	0xbadf925e	-0.0017057171
13	0x3c183bb6	0.00929158
14	0x3c15dd0b	0.009146939
15	0xbc1e68c1	-0.00966853
16	0xbc769ae4	-0.015051577
17	0xba1d98ea	-0.00060118607
18	0x3c68c7ee	0.014207823
19	0x3b06186a	0.002046133
20	0xbc523059	-0.01282891
21	0x3b030889	0.00199941
22	0x3ba7fbc9	0.0051264507
23	0x3c1a02f8	0.009400122
24	0x3b823bf7	0.0039744335
25	0x3c5a7122	0.013332637
26	0x39855e68	0.00025438075
27	0xbae87696	-0.0017735537
28	0xbbdf3f8d	-0.0068129958
29	0xbc6c3a99	-0.014418268
30	0xbb35b2d5	-0.0027725
31	0xbc7e692f	-0.015528007
32	0xbb57a741	-0.0032906088
33	0x3c4a257d	0.012338039
34	0x3c1a4a25	0.0094170915
35	0x3bab2e66	0.005224037
36	0xbc25ae33	-0.010112333
37	0xbbac6c19	-0.0052619097
38	0xbb8e43b9	-0.0043415693
39	0x3c5a059b	0.0133070005
40	0x3b4e25dd	0.0031455674
41	0x3be0d67d	0.0068615065
42	0xbc46fcff	-0.01214528
43	0x3c39e4d0	0.011346057
44	0x3c192ba4	0.009348784
45	0xbc73107c	-0.014835473
46	0xbc4733f2	-0.012158381
47	0xbc654fcc	-0.013996076
48	0xbbdec099	-0.006797862
49	0x3c23271e	0.009958057
50	0x3c5e6b26	0.013575351
51	0x3b4a18dc	0.0030837571
52	0xbc0dde62	-0.008658977
53	0x3c3a2d22	0.0113633
54	0xbc447468	-0.011990644
55	0x3b2d8161	0.002647482
56	0x3be5d13d	0.0070134685
57	0xbc41bd8d	-0.011824978
58	0x3c566192	0.013084786
59	0x3c571ad0	0.013128951
60	0x3b50bc9d	0.0031850704
61	0x3bb522f4	0.0055278484
62	0x3c068821	0.008211167
63	0x3c575938	0.01314383
64	0xbc46b009	-0.012126931
65	0x3c587289	0.013210901
66	0xbc62c1fe	-0.013840197
67	0x3b98a76f	0.0046586315
68	0xbc40201f	-0.011726408
69	0x3a547ada	0.00081054645
70	0xbbb786d5	-0.00560079
71	0x3c4ee229	0.012627163
72	0xbc246a05	-0.010035043
73	0xbac32854	-0.0014889338
74	0x3c3b9c41	0.011450828
75	0x3ba26c53	0.004956761
76	0xbb8c5f71	-0.0042838384
77	0xbbacfb3b	-0.0052789724
78	0x3aa58bce	0.0012630166
79	0xbc18f0ee	-0.009334786
80	0x3c19b00a	0.00938035
81	0x3c566dd4	0.0130877085
82	0x3c77f269	0.015133479
83	0xbc8e57d1	-0.017375859
84	0x3bde6477	0.0067868787
85	0xbbb9ecdf	-0.005673989
86	0x3bfe9bea	0.0077700512
87	0x3bc268cb	0.0059329025
88	0x3bd063b3	0.0063595413
89	0xbc20dd4c	-0.009818386
90	0x3af330c0	0.0018553957
91	0x3b1ff08e	0.0024404856
92	0xbc6010b0	-0.013675854
93	0x3c3197ad	0.010839385
94	0xbc3836a0	-0.011243492
95	0xbc41aae3	-0.011820528
96	0xbc36e421	-0.011162789
97	0x3c0a4dee	0.008441431
98	0xbc7ea7d4	-0.015542943
99	0xbc394276	-0.011307349
100	0xbc6476bc	-0.013944324
101	0xb980cfaf	-0.000245688
102	0x3c2d71c4	0.010586206
103	0x3aa2b716	0.0012414183
104	0xbce57cda	-0.028013635
105	0x3aaa6822	0.0013001005
106	0x3c394804	0.011308674
107	0xbb883bc9	-0.0041575176
108	0x3af6f75c	0.0018842029
109	0xbc6f09e6	-0.014589762
110	0xbbd9196b	-0.0066253445
111	0x3b3d95f7	0.0028928497
112	0xbbcaa5a2	-0.0061842958
113	0xbb033302	-0.0020019417
114	0x3c22eb3d	0.0099437805
115	0x3c0d1524	0.008610997
116	0x3c70108d	0.0146523835
117	0xbbb6fa8a	-0.005584066
118	0xbc00195b	-0.007818545
119	0xbbd30342	-0.0064395973
120	0xbbf8d430	-0.007593654
121	0xba30b2dc	-0.00067405193
122	0x38b4ace8	8.615275e-05
123	0xbc24ce0d	-0.010058892
124	0x3c3605ec	0.01110981
125	0xbbf286a4	-0.0074013043
126	0xba81b467	-0.0009895683
127	0x3aacbd93	0.0013179056
128	0xbc746440	-0.01491648
129	0xbbfb6b4f	-0.0076727043
130	0xbbd0bca4	-0.006370144
131	0xbb37e199	-0.002805805
132	0xbc0e3f6a	-0.008682111
133	0x3b6f4864	0.0036511654
134	0x3c63c6a5	0.013902341
135	0x3a676a32	0.0008827775
136	0xbc03b2d7	-0.008038244
137	0xbc417cb3	-0.011809516
138	0xbbdc3ad6	-0.006720881
139	0xbc42b055	-0.011882861
140	0xbc0dcee9	-0.008655288
141	0x39a237a9	0.00030940518
142	0x3c7436de	0.0149056595
143	0x3c110cbd	0.008853135
144	0x3ce9cb9c	0.028539471
145	0xbbe4f07a	-0.006986675
146	0xbb928774	-0.0044717137
147	0xbc63e3bc	-0.013909277
148	0x3b707b26	0.0036694496
149	0xbb929e79	-0.004474458
150	0xbc2b6a47	-0.01046235
151	0xbc4e662e	-0.012597604
152	0x3a547eef	0.0008106073
153	0xbbb4507e	-0.0055027595
154	0xbc23722c	-0.009975951
155	0xb948d737	-0.0001915366
156	0xbb410733	-0.0029453754
157	0xbc4488c0	-0.011995494
158	0xbb6c3343	-0.0036041297
159	0xbb201ad4	-0.0024430053
160	0xbbda1d78	-0.006656345
161	0x3c809616	0.015696567
162	0x3b1f4464	0.0024302239
163	0xbc644729	-0.0139329815
164	0x3bf7c6c2	0.0075615356
165	0xbc694b6f	-0.014239176
166	0xbbc3e21a	-0.005977881
167	0xbac450a9	-0.0014977652
168	0xbb32de11	-0.0027293006
169	0x3c2f57d0	0.0107020885
170	0xbc350c08	-0.011050232
171	0xbbe1f2b8	-0.0068953894
172	0x3c302c7a	0.010752792
173	0xbc135ae4	-0.008993838
174	0x3b87cd4b	0.004144346
175	0x3bd468a3	0.0064822
176	0x3a51937f	0.0007994696
177	0x39c2e35e	0.00037171965
178	0x3c56414f	0.013077094
179	0xbc647aa0	-0.013945252
180	0xbc341b44	-0.010992829
181	0xbc62a0bb	-0.013832266
182	0xbc3f6ee7	-0.011684156
183	0x3b86da54	0.004115382
184	0xba295957	-0.0006460151
185	0x3c827832	0.015926454
186	0x3bf5c51c	0.007500304
187	0xbc1c83bf	-0.009552895
188	0xbc67760f	-0.014127268
189	0xbc303a37	-0.010756067
190	0xbbc78bc2	-0.0060896585
191	0xbbe5480c	-0.006997114
192	0x3a9d5330	0.0012002941
193	0x3c0ed59f	0.008717923
194	0xbc0d6dee	-0.008632166
195	0xbc640254	-0.013916571
196	0x3c4aecfd	0.012385604
197	0xbbbe2a95	-0.005803416
198	0x3b7aafea	0.0038251826
199	0xbc566790	-0.013086215
200	0x3b710bca	0.0036780708
201	0xbc2f4046	-0.010696476
202	0x3c12596b	0.008932452
203	0x3c049ad5	0.008093555
204	0x3c94101b	0.018074086
205	0xbc8694b1	-0.016428323
206	0xbc52a3dd	-0.012856451
207	0xbc8982bf	-0.016785977
208	0x3b77a1d5	0.0037785668
209	0xbb4e3186	-0.0031462624
210	0xbb0826ed	-0.0020775155
211	0xbad9cc37	-0.0016616647
212	0x3c75579b	0.0149745
213	0xbbb7c886	-0.005608621
214	0xbbea19f8	-0.007144209
215	0x3bf718fd	0.0075408206
216	0xbc28e6fb	-0.010308976
217	0xbbc58b20	-0.006028548
218	0x3c0eab83	0.008707884
219	0xbbe20a25	-0.006898182
220	0xbaa35649	-0.0012461628
221	0x3c2790a3	0.010227355
222	0xbae6700c	-0.0017581
223	0x3b0ee7df	0.0021805686
224	0xbc3b567a	-0.011434192
225	0xb9c6922e	-0.00037874415
226	0xbb38c4ea	-0.0028193542
227	0x3c5a2429	0.013314285
228	0xbc6a31b4	-0.014294077
229	0x3c0efd01	0.008727313
230	0xbb9d53ac	-0.004801234
231	0x3b56f82e	0.0032801735
232	0xbc40ff6c	-0.011779647
233	0xbc805b97	-0.015668673
234	0xbc1f9ffc	-0.009742733
235	0xbb10347d	-0.0022003942
236	0xbc2c6267	-0.010521508
237	0x3aaee018	0.0013341932
238	0xbb82d093	-0.003992149
239	0x3b6e554f	0.0036366766
240	0xbb36a330	-0.0027868263
241	0x3c552baa	0.013010899
242	0x3c562753	0.013070899
243	0xbc1d8b19	-0.009615683
244	0x3b0c462e	0.0021404135
245	0xbbf0e5ee	-0.0073516285
246	0x3bc1ac2b	0.0059104166
247	0xbc04d178	-0.008106582
248	0xbc216378	-0.009850375
249	0xbc49af49	-0.012309858
250	0x3befc71a	0.007317436
251	0x3b04edaf	0.0020283272
252	0x3b9ded6d	0.004819563
253	0xbc6c547c	-0.0144244395
254	0x3c97c7be	0.018527862
255	0x3b80d0c0	0.003931135

linear.bias f4 [2]
0	0xbc1c1237	-0.009525827
1	0x3b6af71d	0.0035852857
